<?xml version="1.0"?>
<net name="main_graph" version="11">
	<layers>
		<layer id="0" name="image" type="Parameter" version="opset1">
			<data shape="1,3,800,992" element_type="f32" />
			<output>
				<port id="0" precision="FP32" names="image">
					<dim>1</dim>
					<dim>3</dim>
					<dim>800</dim>
					<dim>992</dim>
				</port>
			</output>
		</layer>
		<layer id="1" name="/Constant_29" type="Const" version="opset1">
			<data element_type="f32" shape="1, 1, 4" offset="0" size="16" />
			<output>
				<port id="0" precision="FP32" names="/Constant_29_output_0">
					<dim>1</dim>
					<dim>1</dim>
					<dim>4</dim>
				</port>
			</output>
		</layer>
		<layer id="2" name="/Constant_11" type="Const" version="opset1">
			<data element_type="i64" shape="" offset="16" size="8" />
			<output>
				<port id="0" precision="I64" names="/Constant_11_output_0" />
			</output>
		</layer>
		<layer id="3" name="onnx::Conv_2489" type="Const" version="opset1">
			<data element_type="f32" shape="32, 3, 3, 3" offset="24" size="3456" />
			<output>
				<port id="0" precision="FP32" names="onnx::Conv_2489">
					<dim>32</dim>
					<dim>3</dim>
					<dim>3</dim>
					<dim>3</dim>
				</port>
			</output>
		</layer>
		<layer id="4" name="/backbone/init_block/conv/Conv/WithoutBiases" type="Convolution" version="opset1">
			<data strides="2, 2" dilations="1, 1" pads_begin="1, 1" pads_end="1, 1" auto_pad="explicit" />
			<input>
				<port id="0" precision="FP32">
					<dim>1</dim>
					<dim>3</dim>
					<dim>800</dim>
					<dim>992</dim>
				</port>
				<port id="1" precision="FP32">
					<dim>32</dim>
					<dim>3</dim>
					<dim>3</dim>
					<dim>3</dim>
				</port>
			</input>
			<output>
				<port id="2" precision="FP32">
					<dim>1</dim>
					<dim>32</dim>
					<dim>400</dim>
					<dim>496</dim>
				</port>
			</output>
		</layer>
		<layer id="5" name="Reshape_169" type="Const" version="opset1">
			<data element_type="f32" shape="1, 32, 1, 1" offset="3480" size="128" />
			<output>
				<port id="0" precision="FP32">
					<dim>1</dim>
					<dim>32</dim>
					<dim>1</dim>
					<dim>1</dim>
				</port>
			</output>
		</layer>
		<layer id="6" name="/backbone/init_block/conv/Conv" type="Add" version="opset1">
			<data auto_broadcast="numpy" />
			<input>
				<port id="0" precision="FP32">
					<dim>1</dim>
					<dim>32</dim>
					<dim>400</dim>
					<dim>496</dim>
				</port>
				<port id="1" precision="FP32">
					<dim>1</dim>
					<dim>32</dim>
					<dim>1</dim>
					<dim>1</dim>
				</port>
			</input>
			<output>
				<port id="2" precision="FP32" names="/backbone/init_block/conv/Conv_output_0">
					<dim>1</dim>
					<dim>32</dim>
					<dim>400</dim>
					<dim>496</dim>
				</port>
			</output>
		</layer>
		<layer id="7" name="/backbone/init_block/activ/Clip" type="Clamp" version="opset1">
			<data min="0" max="6" />
			<input>
				<port id="0" precision="FP32">
					<dim>1</dim>
					<dim>32</dim>
					<dim>400</dim>
					<dim>496</dim>
				</port>
			</input>
			<output>
				<port id="1" precision="FP32" names="/backbone/init_block/activ/Clip_output_0">
					<dim>1</dim>
					<dim>32</dim>
					<dim>400</dim>
					<dim>496</dim>
				</port>
			</output>
		</layer>
		<layer id="8" name="onnx::Conv_2492" type="Const" version="opset1">
			<data element_type="f32" shape="32, 32, 1, 1" offset="3608" size="4096" />
			<output>
				<port id="0" precision="FP32" names="onnx::Conv_2492">
					<dim>32</dim>
					<dim>32</dim>
					<dim>1</dim>
					<dim>1</dim>
				</port>
			</output>
		</layer>
		<layer id="9" name="/backbone/stage1/unit1/conv1/conv/Conv/WithoutBiases" type="Convolution" version="opset1">
			<data strides="1, 1" dilations="1, 1" pads_begin="0, 0" pads_end="0, 0" auto_pad="explicit" />
			<input>
				<port id="0" precision="FP32">
					<dim>1</dim>
					<dim>32</dim>
					<dim>400</dim>
					<dim>496</dim>
				</port>
				<port id="1" precision="FP32">
					<dim>32</dim>
					<dim>32</dim>
					<dim>1</dim>
					<dim>1</dim>
				</port>
			</input>
			<output>
				<port id="2" precision="FP32">
					<dim>1</dim>
					<dim>32</dim>
					<dim>400</dim>
					<dim>496</dim>
				</port>
			</output>
		</layer>
		<layer id="10" name="Reshape_186" type="Const" version="opset1">
			<data element_type="f32" shape="1, 32, 1, 1" offset="7704" size="128" />
			<output>
				<port id="0" precision="FP32">
					<dim>1</dim>
					<dim>32</dim>
					<dim>1</dim>
					<dim>1</dim>
				</port>
			</output>
		</layer>
		<layer id="11" name="/backbone/stage1/unit1/conv1/conv/Conv" type="Add" version="opset1">
			<data auto_broadcast="numpy" />
			<input>
				<port id="0" precision="FP32">
					<dim>1</dim>
					<dim>32</dim>
					<dim>400</dim>
					<dim>496</dim>
				</port>
				<port id="1" precision="FP32">
					<dim>1</dim>
					<dim>32</dim>
					<dim>1</dim>
					<dim>1</dim>
				</port>
			</input>
			<output>
				<port id="2" precision="FP32" names="/backbone/stage1/unit1/conv1/conv/Conv_output_0">
					<dim>1</dim>
					<dim>32</dim>
					<dim>400</dim>
					<dim>496</dim>
				</port>
			</output>
		</layer>
		<layer id="12" name="/backbone/stage1/unit1/conv1/activ/Clip" type="Clamp" version="opset1">
			<data min="0" max="6" />
			<input>
				<port id="0" precision="FP32">
					<dim>1</dim>
					<dim>32</dim>
					<dim>400</dim>
					<dim>496</dim>
				</port>
			</input>
			<output>
				<port id="1" precision="FP32" names="/backbone/stage1/unit1/conv1/activ/Clip_output_0">
					<dim>1</dim>
					<dim>32</dim>
					<dim>400</dim>
					<dim>496</dim>
				</port>
			</output>
		</layer>
		<layer id="13" name="Reshape_199" type="Const" version="opset1">
			<data element_type="f32" shape="32, 1, 1, 3, 3" offset="7832" size="1152" />
			<output>
				<port id="0" precision="FP32">
					<dim>32</dim>
					<dim>1</dim>
					<dim>1</dim>
					<dim>3</dim>
					<dim>3</dim>
				</port>
			</output>
		</layer>
		<layer id="14" name="/backbone/stage1/unit1/conv2/conv/Conv/WithoutBiases" type="GroupConvolution" version="opset1">
			<data strides="1, 1" pads_begin="1, 1" pads_end="1, 1" dilations="1, 1" auto_pad="explicit" />
			<input>
				<port id="0" precision="FP32">
					<dim>1</dim>
					<dim>32</dim>
					<dim>400</dim>
					<dim>496</dim>
				</port>
				<port id="1" precision="FP32">
					<dim>32</dim>
					<dim>1</dim>
					<dim>1</dim>
					<dim>3</dim>
					<dim>3</dim>
				</port>
			</input>
			<output>
				<port id="2" precision="FP32">
					<dim>1</dim>
					<dim>32</dim>
					<dim>400</dim>
					<dim>496</dim>
				</port>
			</output>
		</layer>
		<layer id="15" name="Reshape_249" type="Const" version="opset1">
			<data element_type="f32" shape="1, 32, 1, 1" offset="8984" size="128" />
			<output>
				<port id="0" precision="FP32">
					<dim>1</dim>
					<dim>32</dim>
					<dim>1</dim>
					<dim>1</dim>
				</port>
			</output>
		</layer>
		<layer id="16" name="/backbone/stage1/unit1/conv2/conv/Conv" type="Add" version="opset1">
			<data auto_broadcast="numpy" />
			<input>
				<port id="0" precision="FP32">
					<dim>1</dim>
					<dim>32</dim>
					<dim>400</dim>
					<dim>496</dim>
				</port>
				<port id="1" precision="FP32">
					<dim>1</dim>
					<dim>32</dim>
					<dim>1</dim>
					<dim>1</dim>
				</port>
			</input>
			<output>
				<port id="2" precision="FP32" names="/backbone/stage1/unit1/conv2/conv/Conv_output_0">
					<dim>1</dim>
					<dim>32</dim>
					<dim>400</dim>
					<dim>496</dim>
				</port>
			</output>
		</layer>
		<layer id="17" name="/backbone/stage1/unit1/conv2/activ/Clip" type="Clamp" version="opset1">
			<data min="0" max="6" />
			<input>
				<port id="0" precision="FP32">
					<dim>1</dim>
					<dim>32</dim>
					<dim>400</dim>
					<dim>496</dim>
				</port>
			</input>
			<output>
				<port id="1" precision="FP32" names="/backbone/stage1/unit1/conv2/activ/Clip_output_0">
					<dim>1</dim>
					<dim>32</dim>
					<dim>400</dim>
					<dim>496</dim>
				</port>
			</output>
		</layer>
		<layer id="18" name="onnx::Conv_2498" type="Const" version="opset1">
			<data element_type="f32" shape="16, 32, 1, 1" offset="9112" size="2048" />
			<output>
				<port id="0" precision="FP32" names="onnx::Conv_2498">
					<dim>16</dim>
					<dim>32</dim>
					<dim>1</dim>
					<dim>1</dim>
				</port>
			</output>
		</layer>
		<layer id="19" name="/backbone/stage1/unit1/conv3/conv/Conv/WithoutBiases" type="Convolution" version="opset1">
			<data strides="1, 1" dilations="1, 1" pads_begin="0, 0" pads_end="0, 0" auto_pad="explicit" />
			<input>
				<port id="0" precision="FP32">
					<dim>1</dim>
					<dim>32</dim>
					<dim>400</dim>
					<dim>496</dim>
				</port>
				<port id="1" precision="FP32">
					<dim>16</dim>
					<dim>32</dim>
					<dim>1</dim>
					<dim>1</dim>
				</port>
			</input>
			<output>
				<port id="2" precision="FP32">
					<dim>1</dim>
					<dim>16</dim>
					<dim>400</dim>
					<dim>496</dim>
				</port>
			</output>
		</layer>
		<layer id="20" name="Reshape_266" type="Const" version="opset1">
			<data element_type="f32" shape="1, 16, 1, 1" offset="11160" size="64" />
			<output>
				<port id="0" precision="FP32">
					<dim>1</dim>
					<dim>16</dim>
					<dim>1</dim>
					<dim>1</dim>
				</port>
			</output>
		</layer>
		<layer id="21" name="/backbone/stage1/unit1/conv3/conv/Conv" type="Add" version="opset1">
			<data auto_broadcast="numpy" />
			<input>
				<port id="0" precision="FP32">
					<dim>1</dim>
					<dim>16</dim>
					<dim>400</dim>
					<dim>496</dim>
				</port>
				<port id="1" precision="FP32">
					<dim>1</dim>
					<dim>16</dim>
					<dim>1</dim>
					<dim>1</dim>
				</port>
			</input>
			<output>
				<port id="2" precision="FP32" names="/backbone/stage1/unit1/conv3/conv/Conv_output_0">
					<dim>1</dim>
					<dim>16</dim>
					<dim>400</dim>
					<dim>496</dim>
				</port>
			</output>
		</layer>
		<layer id="22" name="onnx::Conv_2501" type="Const" version="opset1">
			<data element_type="f32" shape="96, 16, 1, 1" offset="11224" size="6144" />
			<output>
				<port id="0" precision="FP32" names="onnx::Conv_2501">
					<dim>96</dim>
					<dim>16</dim>
					<dim>1</dim>
					<dim>1</dim>
				</port>
			</output>
		</layer>
		<layer id="23" name="/backbone/stage2/unit1/conv1/conv/Conv/WithoutBiases" type="Convolution" version="opset1">
			<data strides="1, 1" dilations="1, 1" pads_begin="0, 0" pads_end="0, 0" auto_pad="explicit" />
			<input>
				<port id="0" precision="FP32">
					<dim>1</dim>
					<dim>16</dim>
					<dim>400</dim>
					<dim>496</dim>
				</port>
				<port id="1" precision="FP32">
					<dim>96</dim>
					<dim>16</dim>
					<dim>1</dim>
					<dim>1</dim>
				</port>
			</input>
			<output>
				<port id="2" precision="FP32">
					<dim>1</dim>
					<dim>96</dim>
					<dim>400</dim>
					<dim>496</dim>
				</port>
			</output>
		</layer>
		<layer id="24" name="Reshape_279" type="Const" version="opset1">
			<data element_type="f32" shape="1, 96, 1, 1" offset="17368" size="384" />
			<output>
				<port id="0" precision="FP32">
					<dim>1</dim>
					<dim>96</dim>
					<dim>1</dim>
					<dim>1</dim>
				</port>
			</output>
		</layer>
		<layer id="25" name="/backbone/stage2/unit1/conv1/conv/Conv" type="Add" version="opset1">
			<data auto_broadcast="numpy" />
			<input>
				<port id="0" precision="FP32">
					<dim>1</dim>
					<dim>96</dim>
					<dim>400</dim>
					<dim>496</dim>
				</port>
				<port id="1" precision="FP32">
					<dim>1</dim>
					<dim>96</dim>
					<dim>1</dim>
					<dim>1</dim>
				</port>
			</input>
			<output>
				<port id="2" precision="FP32" names="/backbone/stage2/unit1/conv1/conv/Conv_output_0">
					<dim>1</dim>
					<dim>96</dim>
					<dim>400</dim>
					<dim>496</dim>
				</port>
			</output>
		</layer>
		<layer id="26" name="/backbone/stage2/unit1/conv1/activ/Clip" type="Clamp" version="opset1">
			<data min="0" max="6" />
			<input>
				<port id="0" precision="FP32">
					<dim>1</dim>
					<dim>96</dim>
					<dim>400</dim>
					<dim>496</dim>
				</port>
			</input>
			<output>
				<port id="1" precision="FP32" names="/backbone/stage2/unit1/conv1/activ/Clip_output_0">
					<dim>1</dim>
					<dim>96</dim>
					<dim>400</dim>
					<dim>496</dim>
				</port>
			</output>
		</layer>
		<layer id="27" name="Reshape_292" type="Const" version="opset1">
			<data element_type="f32" shape="96, 1, 1, 3, 3" offset="17752" size="3456" />
			<output>
				<port id="0" precision="FP32">
					<dim>96</dim>
					<dim>1</dim>
					<dim>1</dim>
					<dim>3</dim>
					<dim>3</dim>
				</port>
			</output>
		</layer>
		<layer id="28" name="/backbone/stage2/unit1/conv2/conv/Conv/WithoutBiases" type="GroupConvolution" version="opset1">
			<data strides="2, 2" pads_begin="1, 1" pads_end="1, 1" dilations="1, 1" auto_pad="explicit" />
			<input>
				<port id="0" precision="FP32">
					<dim>1</dim>
					<dim>96</dim>
					<dim>400</dim>
					<dim>496</dim>
				</port>
				<port id="1" precision="FP32">
					<dim>96</dim>
					<dim>1</dim>
					<dim>1</dim>
					<dim>3</dim>
					<dim>3</dim>
				</port>
			</input>
			<output>
				<port id="2" precision="FP32">
					<dim>1</dim>
					<dim>96</dim>
					<dim>200</dim>
					<dim>248</dim>
				</port>
			</output>
		</layer>
		<layer id="29" name="Reshape_342" type="Const" version="opset1">
			<data element_type="f32" shape="1, 96, 1, 1" offset="21208" size="384" />
			<output>
				<port id="0" precision="FP32">
					<dim>1</dim>
					<dim>96</dim>
					<dim>1</dim>
					<dim>1</dim>
				</port>
			</output>
		</layer>
		<layer id="30" name="/backbone/stage2/unit1/conv2/conv/Conv" type="Add" version="opset1">
			<data auto_broadcast="numpy" />
			<input>
				<port id="0" precision="FP32">
					<dim>1</dim>
					<dim>96</dim>
					<dim>200</dim>
					<dim>248</dim>
				</port>
				<port id="1" precision="FP32">
					<dim>1</dim>
					<dim>96</dim>
					<dim>1</dim>
					<dim>1</dim>
				</port>
			</input>
			<output>
				<port id="2" precision="FP32" names="/backbone/stage2/unit1/conv2/conv/Conv_output_0">
					<dim>1</dim>
					<dim>96</dim>
					<dim>200</dim>
					<dim>248</dim>
				</port>
			</output>
		</layer>
		<layer id="31" name="/backbone/stage2/unit1/conv2/activ/Clip" type="Clamp" version="opset1">
			<data min="0" max="6" />
			<input>
				<port id="0" precision="FP32">
					<dim>1</dim>
					<dim>96</dim>
					<dim>200</dim>
					<dim>248</dim>
				</port>
			</input>
			<output>
				<port id="1" precision="FP32" names="/backbone/stage2/unit1/conv2/activ/Clip_output_0">
					<dim>1</dim>
					<dim>96</dim>
					<dim>200</dim>
					<dim>248</dim>
				</port>
			</output>
		</layer>
		<layer id="32" name="onnx::Conv_2507" type="Const" version="opset1">
			<data element_type="f32" shape="24, 96, 1, 1" offset="21592" size="9216" />
			<output>
				<port id="0" precision="FP32" names="onnx::Conv_2507">
					<dim>24</dim>
					<dim>96</dim>
					<dim>1</dim>
					<dim>1</dim>
				</port>
			</output>
		</layer>
		<layer id="33" name="/backbone/stage2/unit1/conv3/conv/Conv/WithoutBiases" type="Convolution" version="opset1">
			<data strides="1, 1" dilations="1, 1" pads_begin="0, 0" pads_end="0, 0" auto_pad="explicit" />
			<input>
				<port id="0" precision="FP32">
					<dim>1</dim>
					<dim>96</dim>
					<dim>200</dim>
					<dim>248</dim>
				</port>
				<port id="1" precision="FP32">
					<dim>24</dim>
					<dim>96</dim>
					<dim>1</dim>
					<dim>1</dim>
				</port>
			</input>
			<output>
				<port id="2" precision="FP32">
					<dim>1</dim>
					<dim>24</dim>
					<dim>200</dim>
					<dim>248</dim>
				</port>
			</output>
		</layer>
		<layer id="34" name="Reshape_359" type="Const" version="opset1">
			<data element_type="f32" shape="1, 24, 1, 1" offset="30808" size="96" />
			<output>
				<port id="0" precision="FP32">
					<dim>1</dim>
					<dim>24</dim>
					<dim>1</dim>
					<dim>1</dim>
				</port>
			</output>
		</layer>
		<layer id="35" name="/backbone/stage2/unit1/conv3/conv/Conv" type="Add" version="opset1">
			<data auto_broadcast="numpy" />
			<input>
				<port id="0" precision="FP32">
					<dim>1</dim>
					<dim>24</dim>
					<dim>200</dim>
					<dim>248</dim>
				</port>
				<port id="1" precision="FP32">
					<dim>1</dim>
					<dim>24</dim>
					<dim>1</dim>
					<dim>1</dim>
				</port>
			</input>
			<output>
				<port id="2" precision="FP32" names="/backbone/stage2/unit1/conv3/conv/Conv_output_0">
					<dim>1</dim>
					<dim>24</dim>
					<dim>200</dim>
					<dim>248</dim>
				</port>
			</output>
		</layer>
		<layer id="36" name="onnx::Conv_2510" type="Const" version="opset1">
			<data element_type="f32" shape="144, 24, 1, 1" offset="30904" size="13824" />
			<output>
				<port id="0" precision="FP32" names="onnx::Conv_2510">
					<dim>144</dim>
					<dim>24</dim>
					<dim>1</dim>
					<dim>1</dim>
				</port>
			</output>
		</layer>
		<layer id="37" name="/backbone/stage2/unit2/conv1/conv/Conv/WithoutBiases" type="Convolution" version="opset1">
			<data strides="1, 1" dilations="1, 1" pads_begin="0, 0" pads_end="0, 0" auto_pad="explicit" />
			<input>
				<port id="0" precision="FP32">
					<dim>1</dim>
					<dim>24</dim>
					<dim>200</dim>
					<dim>248</dim>
				</port>
				<port id="1" precision="FP32">
					<dim>144</dim>
					<dim>24</dim>
					<dim>1</dim>
					<dim>1</dim>
				</port>
			</input>
			<output>
				<port id="2" precision="FP32">
					<dim>1</dim>
					<dim>144</dim>
					<dim>200</dim>
					<dim>248</dim>
				</port>
			</output>
		</layer>
		<layer id="38" name="Reshape_372" type="Const" version="opset1">
			<data element_type="f32" shape="1, 144, 1, 1" offset="44728" size="576" />
			<output>
				<port id="0" precision="FP32">
					<dim>1</dim>
					<dim>144</dim>
					<dim>1</dim>
					<dim>1</dim>
				</port>
			</output>
		</layer>
		<layer id="39" name="/backbone/stage2/unit2/conv1/conv/Conv" type="Add" version="opset1">
			<data auto_broadcast="numpy" />
			<input>
				<port id="0" precision="FP32">
					<dim>1</dim>
					<dim>144</dim>
					<dim>200</dim>
					<dim>248</dim>
				</port>
				<port id="1" precision="FP32">
					<dim>1</dim>
					<dim>144</dim>
					<dim>1</dim>
					<dim>1</dim>
				</port>
			</input>
			<output>
				<port id="2" precision="FP32" names="/backbone/stage2/unit2/conv1/conv/Conv_output_0">
					<dim>1</dim>
					<dim>144</dim>
					<dim>200</dim>
					<dim>248</dim>
				</port>
			</output>
		</layer>
		<layer id="40" name="/backbone/stage2/unit2/conv1/activ/Clip" type="Clamp" version="opset1">
			<data min="0" max="6" />
			<input>
				<port id="0" precision="FP32">
					<dim>1</dim>
					<dim>144</dim>
					<dim>200</dim>
					<dim>248</dim>
				</port>
			</input>
			<output>
				<port id="1" precision="FP32" names="/backbone/stage2/unit2/conv1/activ/Clip_output_0">
					<dim>1</dim>
					<dim>144</dim>
					<dim>200</dim>
					<dim>248</dim>
				</port>
			</output>
		</layer>
		<layer id="41" name="Reshape_385" type="Const" version="opset1">
			<data element_type="f32" shape="144, 1, 1, 3, 3" offset="45304" size="5184" />
			<output>
				<port id="0" precision="FP32">
					<dim>144</dim>
					<dim>1</dim>
					<dim>1</dim>
					<dim>3</dim>
					<dim>3</dim>
				</port>
			</output>
		</layer>
		<layer id="42" name="/backbone/stage2/unit2/conv2/conv/Conv/WithoutBiases" type="GroupConvolution" version="opset1">
			<data strides="1, 1" pads_begin="1, 1" pads_end="1, 1" dilations="1, 1" auto_pad="explicit" />
			<input>
				<port id="0" precision="FP32">
					<dim>1</dim>
					<dim>144</dim>
					<dim>200</dim>
					<dim>248</dim>
				</port>
				<port id="1" precision="FP32">
					<dim>144</dim>
					<dim>1</dim>
					<dim>1</dim>
					<dim>3</dim>
					<dim>3</dim>
				</port>
			</input>
			<output>
				<port id="2" precision="FP32">
					<dim>1</dim>
					<dim>144</dim>
					<dim>200</dim>
					<dim>248</dim>
				</port>
			</output>
		</layer>
		<layer id="43" name="Reshape_435" type="Const" version="opset1">
			<data element_type="f32" shape="1, 144, 1, 1" offset="50488" size="576" />
			<output>
				<port id="0" precision="FP32">
					<dim>1</dim>
					<dim>144</dim>
					<dim>1</dim>
					<dim>1</dim>
				</port>
			</output>
		</layer>
		<layer id="44" name="/backbone/stage2/unit2/conv2/conv/Conv" type="Add" version="opset1">
			<data auto_broadcast="numpy" />
			<input>
				<port id="0" precision="FP32">
					<dim>1</dim>
					<dim>144</dim>
					<dim>200</dim>
					<dim>248</dim>
				</port>
				<port id="1" precision="FP32">
					<dim>1</dim>
					<dim>144</dim>
					<dim>1</dim>
					<dim>1</dim>
				</port>
			</input>
			<output>
				<port id="2" precision="FP32" names="/backbone/stage2/unit2/conv2/conv/Conv_output_0">
					<dim>1</dim>
					<dim>144</dim>
					<dim>200</dim>
					<dim>248</dim>
				</port>
			</output>
		</layer>
		<layer id="45" name="/backbone/stage2/unit2/conv2/activ/Clip" type="Clamp" version="opset1">
			<data min="0" max="6" />
			<input>
				<port id="0" precision="FP32">
					<dim>1</dim>
					<dim>144</dim>
					<dim>200</dim>
					<dim>248</dim>
				</port>
			</input>
			<output>
				<port id="1" precision="FP32" names="/backbone/stage2/unit2/conv2/activ/Clip_output_0">
					<dim>1</dim>
					<dim>144</dim>
					<dim>200</dim>
					<dim>248</dim>
				</port>
			</output>
		</layer>
		<layer id="46" name="onnx::Conv_2516" type="Const" version="opset1">
			<data element_type="f32" shape="24, 144, 1, 1" offset="51064" size="13824" />
			<output>
				<port id="0" precision="FP32" names="onnx::Conv_2516">
					<dim>24</dim>
					<dim>144</dim>
					<dim>1</dim>
					<dim>1</dim>
				</port>
			</output>
		</layer>
		<layer id="47" name="/backbone/stage2/unit2/conv3/conv/Conv/WithoutBiases" type="Convolution" version="opset1">
			<data strides="1, 1" dilations="1, 1" pads_begin="0, 0" pads_end="0, 0" auto_pad="explicit" />
			<input>
				<port id="0" precision="FP32">
					<dim>1</dim>
					<dim>144</dim>
					<dim>200</dim>
					<dim>248</dim>
				</port>
				<port id="1" precision="FP32">
					<dim>24</dim>
					<dim>144</dim>
					<dim>1</dim>
					<dim>1</dim>
				</port>
			</input>
			<output>
				<port id="2" precision="FP32">
					<dim>1</dim>
					<dim>24</dim>
					<dim>200</dim>
					<dim>248</dim>
				</port>
			</output>
		</layer>
		<layer id="48" name="Reshape_452" type="Const" version="opset1">
			<data element_type="f32" shape="1, 24, 1, 1" offset="64888" size="96" />
			<output>
				<port id="0" precision="FP32">
					<dim>1</dim>
					<dim>24</dim>
					<dim>1</dim>
					<dim>1</dim>
				</port>
			</output>
		</layer>
		<layer id="49" name="/backbone/stage2/unit2/conv3/conv/Conv" type="Add" version="opset1">
			<data auto_broadcast="numpy" />
			<input>
				<port id="0" precision="FP32">
					<dim>1</dim>
					<dim>24</dim>
					<dim>200</dim>
					<dim>248</dim>
				</port>
				<port id="1" precision="FP32">
					<dim>1</dim>
					<dim>24</dim>
					<dim>1</dim>
					<dim>1</dim>
				</port>
			</input>
			<output>
				<port id="2" precision="FP32" names="/backbone/stage2/unit2/conv3/conv/Conv_output_0">
					<dim>1</dim>
					<dim>24</dim>
					<dim>200</dim>
					<dim>248</dim>
				</port>
			</output>
		</layer>
		<layer id="50" name="/backbone/stage2/unit2/Add" type="Add" version="opset1">
			<data auto_broadcast="numpy" />
			<input>
				<port id="0" precision="FP32">
					<dim>1</dim>
					<dim>24</dim>
					<dim>200</dim>
					<dim>248</dim>
				</port>
				<port id="1" precision="FP32">
					<dim>1</dim>
					<dim>24</dim>
					<dim>200</dim>
					<dim>248</dim>
				</port>
			</input>
			<output>
				<port id="2" precision="FP32" names="/backbone/stage2/unit2/Add_output_0">
					<dim>1</dim>
					<dim>24</dim>
					<dim>200</dim>
					<dim>248</dim>
				</port>
			</output>
		</layer>
		<layer id="51" name="onnx::Conv_2519" type="Const" version="opset1">
			<data element_type="f32" shape="144, 24, 1, 1" offset="64984" size="13824" />
			<output>
				<port id="0" precision="FP32" names="onnx::Conv_2519">
					<dim>144</dim>
					<dim>24</dim>
					<dim>1</dim>
					<dim>1</dim>
				</port>
			</output>
		</layer>
		<layer id="52" name="/backbone/stage3/unit1/conv1/conv/Conv/WithoutBiases" type="Convolution" version="opset1">
			<data strides="1, 1" dilations="1, 1" pads_begin="0, 0" pads_end="0, 0" auto_pad="explicit" />
			<input>
				<port id="0" precision="FP32">
					<dim>1</dim>
					<dim>24</dim>
					<dim>200</dim>
					<dim>248</dim>
				</port>
				<port id="1" precision="FP32">
					<dim>144</dim>
					<dim>24</dim>
					<dim>1</dim>
					<dim>1</dim>
				</port>
			</input>
			<output>
				<port id="2" precision="FP32">
					<dim>1</dim>
					<dim>144</dim>
					<dim>200</dim>
					<dim>248</dim>
				</port>
			</output>
		</layer>
		<layer id="53" name="Reshape_466" type="Const" version="opset1">
			<data element_type="f32" shape="1, 144, 1, 1" offset="78808" size="576" />
			<output>
				<port id="0" precision="FP32">
					<dim>1</dim>
					<dim>144</dim>
					<dim>1</dim>
					<dim>1</dim>
				</port>
			</output>
		</layer>
		<layer id="54" name="/backbone/stage3/unit1/conv1/conv/Conv" type="Add" version="opset1">
			<data auto_broadcast="numpy" />
			<input>
				<port id="0" precision="FP32">
					<dim>1</dim>
					<dim>144</dim>
					<dim>200</dim>
					<dim>248</dim>
				</port>
				<port id="1" precision="FP32">
					<dim>1</dim>
					<dim>144</dim>
					<dim>1</dim>
					<dim>1</dim>
				</port>
			</input>
			<output>
				<port id="2" precision="FP32" names="/backbone/stage3/unit1/conv1/conv/Conv_output_0">
					<dim>1</dim>
					<dim>144</dim>
					<dim>200</dim>
					<dim>248</dim>
				</port>
			</output>
		</layer>
		<layer id="55" name="/backbone/stage3/unit1/conv1/activ/Clip" type="Clamp" version="opset1">
			<data min="0" max="6" />
			<input>
				<port id="0" precision="FP32">
					<dim>1</dim>
					<dim>144</dim>
					<dim>200</dim>
					<dim>248</dim>
				</port>
			</input>
			<output>
				<port id="1" precision="FP32" names="/backbone/stage3/unit1/conv1/activ/Clip_output_0">
					<dim>1</dim>
					<dim>144</dim>
					<dim>200</dim>
					<dim>248</dim>
				</port>
			</output>
		</layer>
		<layer id="56" name="Reshape_479" type="Const" version="opset1">
			<data element_type="f32" shape="144, 1, 1, 3, 3" offset="79384" size="5184" />
			<output>
				<port id="0" precision="FP32">
					<dim>144</dim>
					<dim>1</dim>
					<dim>1</dim>
					<dim>3</dim>
					<dim>3</dim>
				</port>
			</output>
		</layer>
		<layer id="57" name="/backbone/stage3/unit1/conv2/conv/Conv/WithoutBiases" type="GroupConvolution" version="opset1">
			<data strides="2, 2" pads_begin="1, 1" pads_end="1, 1" dilations="1, 1" auto_pad="explicit" />
			<input>
				<port id="0" precision="FP32">
					<dim>1</dim>
					<dim>144</dim>
					<dim>200</dim>
					<dim>248</dim>
				</port>
				<port id="1" precision="FP32">
					<dim>144</dim>
					<dim>1</dim>
					<dim>1</dim>
					<dim>3</dim>
					<dim>3</dim>
				</port>
			</input>
			<output>
				<port id="2" precision="FP32">
					<dim>1</dim>
					<dim>144</dim>
					<dim>100</dim>
					<dim>124</dim>
				</port>
			</output>
		</layer>
		<layer id="58" name="Reshape_529" type="Const" version="opset1">
			<data element_type="f32" shape="1, 144, 1, 1" offset="84568" size="576" />
			<output>
				<port id="0" precision="FP32">
					<dim>1</dim>
					<dim>144</dim>
					<dim>1</dim>
					<dim>1</dim>
				</port>
			</output>
		</layer>
		<layer id="59" name="/backbone/stage3/unit1/conv2/conv/Conv" type="Add" version="opset1">
			<data auto_broadcast="numpy" />
			<input>
				<port id="0" precision="FP32">
					<dim>1</dim>
					<dim>144</dim>
					<dim>100</dim>
					<dim>124</dim>
				</port>
				<port id="1" precision="FP32">
					<dim>1</dim>
					<dim>144</dim>
					<dim>1</dim>
					<dim>1</dim>
				</port>
			</input>
			<output>
				<port id="2" precision="FP32" names="/backbone/stage3/unit1/conv2/conv/Conv_output_0">
					<dim>1</dim>
					<dim>144</dim>
					<dim>100</dim>
					<dim>124</dim>
				</port>
			</output>
		</layer>
		<layer id="60" name="/backbone/stage3/unit1/conv2/activ/Clip" type="Clamp" version="opset1">
			<data min="0" max="6" />
			<input>
				<port id="0" precision="FP32">
					<dim>1</dim>
					<dim>144</dim>
					<dim>100</dim>
					<dim>124</dim>
				</port>
			</input>
			<output>
				<port id="1" precision="FP32" names="/backbone/stage3/unit1/conv2/activ/Clip_output_0">
					<dim>1</dim>
					<dim>144</dim>
					<dim>100</dim>
					<dim>124</dim>
				</port>
			</output>
		</layer>
		<layer id="61" name="onnx::Conv_2525" type="Const" version="opset1">
			<data element_type="f32" shape="32, 144, 1, 1" offset="85144" size="18432" />
			<output>
				<port id="0" precision="FP32" names="onnx::Conv_2525">
					<dim>32</dim>
					<dim>144</dim>
					<dim>1</dim>
					<dim>1</dim>
				</port>
			</output>
		</layer>
		<layer id="62" name="/backbone/stage3/unit1/conv3/conv/Conv/WithoutBiases" type="Convolution" version="opset1">
			<data strides="1, 1" dilations="1, 1" pads_begin="0, 0" pads_end="0, 0" auto_pad="explicit" />
			<input>
				<port id="0" precision="FP32">
					<dim>1</dim>
					<dim>144</dim>
					<dim>100</dim>
					<dim>124</dim>
				</port>
				<port id="1" precision="FP32">
					<dim>32</dim>
					<dim>144</dim>
					<dim>1</dim>
					<dim>1</dim>
				</port>
			</input>
			<output>
				<port id="2" precision="FP32">
					<dim>1</dim>
					<dim>32</dim>
					<dim>100</dim>
					<dim>124</dim>
				</port>
			</output>
		</layer>
		<layer id="63" name="Reshape_546" type="Const" version="opset1">
			<data element_type="f32" shape="1, 32, 1, 1" offset="103576" size="128" />
			<output>
				<port id="0" precision="FP32">
					<dim>1</dim>
					<dim>32</dim>
					<dim>1</dim>
					<dim>1</dim>
				</port>
			</output>
		</layer>
		<layer id="64" name="/backbone/stage3/unit1/conv3/conv/Conv" type="Add" version="opset1">
			<data auto_broadcast="numpy" />
			<input>
				<port id="0" precision="FP32">
					<dim>1</dim>
					<dim>32</dim>
					<dim>100</dim>
					<dim>124</dim>
				</port>
				<port id="1" precision="FP32">
					<dim>1</dim>
					<dim>32</dim>
					<dim>1</dim>
					<dim>1</dim>
				</port>
			</input>
			<output>
				<port id="2" precision="FP32" names="/backbone/stage3/unit1/conv3/conv/Conv_output_0">
					<dim>1</dim>
					<dim>32</dim>
					<dim>100</dim>
					<dim>124</dim>
				</port>
			</output>
		</layer>
		<layer id="65" name="onnx::Conv_2528" type="Const" version="opset1">
			<data element_type="f32" shape="192, 32, 1, 1" offset="103704" size="24576" />
			<output>
				<port id="0" precision="FP32" names="onnx::Conv_2528">
					<dim>192</dim>
					<dim>32</dim>
					<dim>1</dim>
					<dim>1</dim>
				</port>
			</output>
		</layer>
		<layer id="66" name="/backbone/stage3/unit2/conv1/conv/Conv/WithoutBiases" type="Convolution" version="opset1">
			<data strides="1, 1" dilations="1, 1" pads_begin="0, 0" pads_end="0, 0" auto_pad="explicit" />
			<input>
				<port id="0" precision="FP32">
					<dim>1</dim>
					<dim>32</dim>
					<dim>100</dim>
					<dim>124</dim>
				</port>
				<port id="1" precision="FP32">
					<dim>192</dim>
					<dim>32</dim>
					<dim>1</dim>
					<dim>1</dim>
				</port>
			</input>
			<output>
				<port id="2" precision="FP32">
					<dim>1</dim>
					<dim>192</dim>
					<dim>100</dim>
					<dim>124</dim>
				</port>
			</output>
		</layer>
		<layer id="67" name="Reshape_559" type="Const" version="opset1">
			<data element_type="f32" shape="1, 192, 1, 1" offset="128280" size="768" />
			<output>
				<port id="0" precision="FP32">
					<dim>1</dim>
					<dim>192</dim>
					<dim>1</dim>
					<dim>1</dim>
				</port>
			</output>
		</layer>
		<layer id="68" name="/backbone/stage3/unit2/conv1/conv/Conv" type="Add" version="opset1">
			<data auto_broadcast="numpy" />
			<input>
				<port id="0" precision="FP32">
					<dim>1</dim>
					<dim>192</dim>
					<dim>100</dim>
					<dim>124</dim>
				</port>
				<port id="1" precision="FP32">
					<dim>1</dim>
					<dim>192</dim>
					<dim>1</dim>
					<dim>1</dim>
				</port>
			</input>
			<output>
				<port id="2" precision="FP32" names="/backbone/stage3/unit2/conv1/conv/Conv_output_0">
					<dim>1</dim>
					<dim>192</dim>
					<dim>100</dim>
					<dim>124</dim>
				</port>
			</output>
		</layer>
		<layer id="69" name="/backbone/stage3/unit2/conv1/activ/Clip" type="Clamp" version="opset1">
			<data min="0" max="6" />
			<input>
				<port id="0" precision="FP32">
					<dim>1</dim>
					<dim>192</dim>
					<dim>100</dim>
					<dim>124</dim>
				</port>
			</input>
			<output>
				<port id="1" precision="FP32" names="/backbone/stage3/unit2/conv1/activ/Clip_output_0">
					<dim>1</dim>
					<dim>192</dim>
					<dim>100</dim>
					<dim>124</dim>
				</port>
			</output>
		</layer>
		<layer id="70" name="Reshape_572" type="Const" version="opset1">
			<data element_type="f32" shape="192, 1, 1, 3, 3" offset="129048" size="6912" />
			<output>
				<port id="0" precision="FP32">
					<dim>192</dim>
					<dim>1</dim>
					<dim>1</dim>
					<dim>3</dim>
					<dim>3</dim>
				</port>
			</output>
		</layer>
		<layer id="71" name="/backbone/stage3/unit2/conv2/conv/Conv/WithoutBiases" type="GroupConvolution" version="opset1">
			<data strides="1, 1" pads_begin="1, 1" pads_end="1, 1" dilations="1, 1" auto_pad="explicit" />
			<input>
				<port id="0" precision="FP32">
					<dim>1</dim>
					<dim>192</dim>
					<dim>100</dim>
					<dim>124</dim>
				</port>
				<port id="1" precision="FP32">
					<dim>192</dim>
					<dim>1</dim>
					<dim>1</dim>
					<dim>3</dim>
					<dim>3</dim>
				</port>
			</input>
			<output>
				<port id="2" precision="FP32">
					<dim>1</dim>
					<dim>192</dim>
					<dim>100</dim>
					<dim>124</dim>
				</port>
			</output>
		</layer>
		<layer id="72" name="Reshape_622" type="Const" version="opset1">
			<data element_type="f32" shape="1, 192, 1, 1" offset="135960" size="768" />
			<output>
				<port id="0" precision="FP32">
					<dim>1</dim>
					<dim>192</dim>
					<dim>1</dim>
					<dim>1</dim>
				</port>
			</output>
		</layer>
		<layer id="73" name="/backbone/stage3/unit2/conv2/conv/Conv" type="Add" version="opset1">
			<data auto_broadcast="numpy" />
			<input>
				<port id="0" precision="FP32">
					<dim>1</dim>
					<dim>192</dim>
					<dim>100</dim>
					<dim>124</dim>
				</port>
				<port id="1" precision="FP32">
					<dim>1</dim>
					<dim>192</dim>
					<dim>1</dim>
					<dim>1</dim>
				</port>
			</input>
			<output>
				<port id="2" precision="FP32" names="/backbone/stage3/unit2/conv2/conv/Conv_output_0">
					<dim>1</dim>
					<dim>192</dim>
					<dim>100</dim>
					<dim>124</dim>
				</port>
			</output>
		</layer>
		<layer id="74" name="/backbone/stage3/unit2/conv2/activ/Clip" type="Clamp" version="opset1">
			<data min="0" max="6" />
			<input>
				<port id="0" precision="FP32">
					<dim>1</dim>
					<dim>192</dim>
					<dim>100</dim>
					<dim>124</dim>
				</port>
			</input>
			<output>
				<port id="1" precision="FP32" names="/backbone/stage3/unit2/conv2/activ/Clip_output_0">
					<dim>1</dim>
					<dim>192</dim>
					<dim>100</dim>
					<dim>124</dim>
				</port>
			</output>
		</layer>
		<layer id="75" name="onnx::Conv_2534" type="Const" version="opset1">
			<data element_type="f32" shape="32, 192, 1, 1" offset="136728" size="24576" />
			<output>
				<port id="0" precision="FP32" names="onnx::Conv_2534">
					<dim>32</dim>
					<dim>192</dim>
					<dim>1</dim>
					<dim>1</dim>
				</port>
			</output>
		</layer>
		<layer id="76" name="/backbone/stage3/unit2/conv3/conv/Conv/WithoutBiases" type="Convolution" version="opset1">
			<data strides="1, 1" dilations="1, 1" pads_begin="0, 0" pads_end="0, 0" auto_pad="explicit" />
			<input>
				<port id="0" precision="FP32">
					<dim>1</dim>
					<dim>192</dim>
					<dim>100</dim>
					<dim>124</dim>
				</port>
				<port id="1" precision="FP32">
					<dim>32</dim>
					<dim>192</dim>
					<dim>1</dim>
					<dim>1</dim>
				</port>
			</input>
			<output>
				<port id="2" precision="FP32">
					<dim>1</dim>
					<dim>32</dim>
					<dim>100</dim>
					<dim>124</dim>
				</port>
			</output>
		</layer>
		<layer id="77" name="Reshape_639" type="Const" version="opset1">
			<data element_type="f32" shape="1, 32, 1, 1" offset="161304" size="128" />
			<output>
				<port id="0" precision="FP32">
					<dim>1</dim>
					<dim>32</dim>
					<dim>1</dim>
					<dim>1</dim>
				</port>
			</output>
		</layer>
		<layer id="78" name="/backbone/stage3/unit2/conv3/conv/Conv" type="Add" version="opset1">
			<data auto_broadcast="numpy" />
			<input>
				<port id="0" precision="FP32">
					<dim>1</dim>
					<dim>32</dim>
					<dim>100</dim>
					<dim>124</dim>
				</port>
				<port id="1" precision="FP32">
					<dim>1</dim>
					<dim>32</dim>
					<dim>1</dim>
					<dim>1</dim>
				</port>
			</input>
			<output>
				<port id="2" precision="FP32" names="/backbone/stage3/unit2/conv3/conv/Conv_output_0">
					<dim>1</dim>
					<dim>32</dim>
					<dim>100</dim>
					<dim>124</dim>
				</port>
			</output>
		</layer>
		<layer id="79" name="/backbone/stage3/unit2/Add" type="Add" version="opset1">
			<data auto_broadcast="numpy" />
			<input>
				<port id="0" precision="FP32">
					<dim>1</dim>
					<dim>32</dim>
					<dim>100</dim>
					<dim>124</dim>
				</port>
				<port id="1" precision="FP32">
					<dim>1</dim>
					<dim>32</dim>
					<dim>100</dim>
					<dim>124</dim>
				</port>
			</input>
			<output>
				<port id="2" precision="FP32" names="/backbone/stage3/unit2/Add_output_0">
					<dim>1</dim>
					<dim>32</dim>
					<dim>100</dim>
					<dim>124</dim>
				</port>
			</output>
		</layer>
		<layer id="80" name="onnx::Conv_2537" type="Const" version="opset1">
			<data element_type="f32" shape="192, 32, 1, 1" offset="161432" size="24576" />
			<output>
				<port id="0" precision="FP32" names="onnx::Conv_2537">
					<dim>192</dim>
					<dim>32</dim>
					<dim>1</dim>
					<dim>1</dim>
				</port>
			</output>
		</layer>
		<layer id="81" name="/backbone/stage3/unit3/conv1/conv/Conv/WithoutBiases" type="Convolution" version="opset1">
			<data strides="1, 1" dilations="1, 1" pads_begin="0, 0" pads_end="0, 0" auto_pad="explicit" />
			<input>
				<port id="0" precision="FP32">
					<dim>1</dim>
					<dim>32</dim>
					<dim>100</dim>
					<dim>124</dim>
				</port>
				<port id="1" precision="FP32">
					<dim>192</dim>
					<dim>32</dim>
					<dim>1</dim>
					<dim>1</dim>
				</port>
			</input>
			<output>
				<port id="2" precision="FP32">
					<dim>1</dim>
					<dim>192</dim>
					<dim>100</dim>
					<dim>124</dim>
				</port>
			</output>
		</layer>
		<layer id="82" name="Reshape_653" type="Const" version="opset1">
			<data element_type="f32" shape="1, 192, 1, 1" offset="186008" size="768" />
			<output>
				<port id="0" precision="FP32">
					<dim>1</dim>
					<dim>192</dim>
					<dim>1</dim>
					<dim>1</dim>
				</port>
			</output>
		</layer>
		<layer id="83" name="/backbone/stage3/unit3/conv1/conv/Conv" type="Add" version="opset1">
			<data auto_broadcast="numpy" />
			<input>
				<port id="0" precision="FP32">
					<dim>1</dim>
					<dim>192</dim>
					<dim>100</dim>
					<dim>124</dim>
				</port>
				<port id="1" precision="FP32">
					<dim>1</dim>
					<dim>192</dim>
					<dim>1</dim>
					<dim>1</dim>
				</port>
			</input>
			<output>
				<port id="2" precision="FP32" names="/backbone/stage3/unit3/conv1/conv/Conv_output_0">
					<dim>1</dim>
					<dim>192</dim>
					<dim>100</dim>
					<dim>124</dim>
				</port>
			</output>
		</layer>
		<layer id="84" name="/backbone/stage3/unit3/conv1/activ/Clip" type="Clamp" version="opset1">
			<data min="0" max="6" />
			<input>
				<port id="0" precision="FP32">
					<dim>1</dim>
					<dim>192</dim>
					<dim>100</dim>
					<dim>124</dim>
				</port>
			</input>
			<output>
				<port id="1" precision="FP32" names="/backbone/stage3/unit3/conv1/activ/Clip_output_0">
					<dim>1</dim>
					<dim>192</dim>
					<dim>100</dim>
					<dim>124</dim>
				</port>
			</output>
		</layer>
		<layer id="85" name="Reshape_666" type="Const" version="opset1">
			<data element_type="f32" shape="192, 1, 1, 3, 3" offset="186776" size="6912" />
			<output>
				<port id="0" precision="FP32">
					<dim>192</dim>
					<dim>1</dim>
					<dim>1</dim>
					<dim>3</dim>
					<dim>3</dim>
				</port>
			</output>
		</layer>
		<layer id="86" name="/backbone/stage3/unit3/conv2/conv/Conv/WithoutBiases" type="GroupConvolution" version="opset1">
			<data strides="1, 1" pads_begin="1, 1" pads_end="1, 1" dilations="1, 1" auto_pad="explicit" />
			<input>
				<port id="0" precision="FP32">
					<dim>1</dim>
					<dim>192</dim>
					<dim>100</dim>
					<dim>124</dim>
				</port>
				<port id="1" precision="FP32">
					<dim>192</dim>
					<dim>1</dim>
					<dim>1</dim>
					<dim>3</dim>
					<dim>3</dim>
				</port>
			</input>
			<output>
				<port id="2" precision="FP32">
					<dim>1</dim>
					<dim>192</dim>
					<dim>100</dim>
					<dim>124</dim>
				</port>
			</output>
		</layer>
		<layer id="87" name="Reshape_716" type="Const" version="opset1">
			<data element_type="f32" shape="1, 192, 1, 1" offset="193688" size="768" />
			<output>
				<port id="0" precision="FP32">
					<dim>1</dim>
					<dim>192</dim>
					<dim>1</dim>
					<dim>1</dim>
				</port>
			</output>
		</layer>
		<layer id="88" name="/backbone/stage3/unit3/conv2/conv/Conv" type="Add" version="opset1">
			<data auto_broadcast="numpy" />
			<input>
				<port id="0" precision="FP32">
					<dim>1</dim>
					<dim>192</dim>
					<dim>100</dim>
					<dim>124</dim>
				</port>
				<port id="1" precision="FP32">
					<dim>1</dim>
					<dim>192</dim>
					<dim>1</dim>
					<dim>1</dim>
				</port>
			</input>
			<output>
				<port id="2" precision="FP32" names="/backbone/stage3/unit3/conv2/conv/Conv_output_0">
					<dim>1</dim>
					<dim>192</dim>
					<dim>100</dim>
					<dim>124</dim>
				</port>
			</output>
		</layer>
		<layer id="89" name="/backbone/stage3/unit3/conv2/activ/Clip" type="Clamp" version="opset1">
			<data min="0" max="6" />
			<input>
				<port id="0" precision="FP32">
					<dim>1</dim>
					<dim>192</dim>
					<dim>100</dim>
					<dim>124</dim>
				</port>
			</input>
			<output>
				<port id="1" precision="FP32" names="/backbone/stage3/unit3/conv2/activ/Clip_output_0">
					<dim>1</dim>
					<dim>192</dim>
					<dim>100</dim>
					<dim>124</dim>
				</port>
			</output>
		</layer>
		<layer id="90" name="onnx::Conv_2543" type="Const" version="opset1">
			<data element_type="f32" shape="32, 192, 1, 1" offset="194456" size="24576" />
			<output>
				<port id="0" precision="FP32" names="onnx::Conv_2543">
					<dim>32</dim>
					<dim>192</dim>
					<dim>1</dim>
					<dim>1</dim>
				</port>
			</output>
		</layer>
		<layer id="91" name="/backbone/stage3/unit3/conv3/conv/Conv/WithoutBiases" type="Convolution" version="opset1">
			<data strides="1, 1" dilations="1, 1" pads_begin="0, 0" pads_end="0, 0" auto_pad="explicit" />
			<input>
				<port id="0" precision="FP32">
					<dim>1</dim>
					<dim>192</dim>
					<dim>100</dim>
					<dim>124</dim>
				</port>
				<port id="1" precision="FP32">
					<dim>32</dim>
					<dim>192</dim>
					<dim>1</dim>
					<dim>1</dim>
				</port>
			</input>
			<output>
				<port id="2" precision="FP32">
					<dim>1</dim>
					<dim>32</dim>
					<dim>100</dim>
					<dim>124</dim>
				</port>
			</output>
		</layer>
		<layer id="92" name="Reshape_733" type="Const" version="opset1">
			<data element_type="f32" shape="1, 32, 1, 1" offset="219032" size="128" />
			<output>
				<port id="0" precision="FP32">
					<dim>1</dim>
					<dim>32</dim>
					<dim>1</dim>
					<dim>1</dim>
				</port>
			</output>
		</layer>
		<layer id="93" name="/backbone/stage3/unit3/conv3/conv/Conv" type="Add" version="opset1">
			<data auto_broadcast="numpy" />
			<input>
				<port id="0" precision="FP32">
					<dim>1</dim>
					<dim>32</dim>
					<dim>100</dim>
					<dim>124</dim>
				</port>
				<port id="1" precision="FP32">
					<dim>1</dim>
					<dim>32</dim>
					<dim>1</dim>
					<dim>1</dim>
				</port>
			</input>
			<output>
				<port id="2" precision="FP32" names="/backbone/stage3/unit3/conv3/conv/Conv_output_0">
					<dim>1</dim>
					<dim>32</dim>
					<dim>100</dim>
					<dim>124</dim>
				</port>
			</output>
		</layer>
		<layer id="94" name="/backbone/stage3/unit3/Add" type="Add" version="opset1">
			<data auto_broadcast="numpy" />
			<input>
				<port id="0" precision="FP32">
					<dim>1</dim>
					<dim>32</dim>
					<dim>100</dim>
					<dim>124</dim>
				</port>
				<port id="1" precision="FP32">
					<dim>1</dim>
					<dim>32</dim>
					<dim>100</dim>
					<dim>124</dim>
				</port>
			</input>
			<output>
				<port id="2" precision="FP32" names="/backbone/stage3/unit3/Add_output_0">
					<dim>1</dim>
					<dim>32</dim>
					<dim>100</dim>
					<dim>124</dim>
				</port>
			</output>
		</layer>
		<layer id="95" name="model.neck.lateral_convs.0.conv.weight" type="Const" version="opset1">
			<data element_type="f32" shape="64, 32, 1, 1" offset="219160" size="8192" />
			<output>
				<port id="0" precision="FP32" names="model.neck.lateral_convs.0.conv.weight">
					<dim>64</dim>
					<dim>32</dim>
					<dim>1</dim>
					<dim>1</dim>
				</port>
			</output>
		</layer>
		<layer id="96" name="/neck/lateral_convs.0/conv/Conv/WithoutBiases" type="Convolution" version="opset1">
			<data strides="1, 1" dilations="1, 1" pads_begin="0, 0" pads_end="0, 0" auto_pad="explicit" />
			<input>
				<port id="0" precision="FP32">
					<dim>1</dim>
					<dim>32</dim>
					<dim>100</dim>
					<dim>124</dim>
				</port>
				<port id="1" precision="FP32">
					<dim>64</dim>
					<dim>32</dim>
					<dim>1</dim>
					<dim>1</dim>
				</port>
			</input>
			<output>
				<port id="2" precision="FP32">
					<dim>1</dim>
					<dim>64</dim>
					<dim>100</dim>
					<dim>124</dim>
				</port>
			</output>
		</layer>
		<layer id="97" name="Reshape_1777" type="Const" version="opset1">
			<data element_type="f32" shape="1, 64, 1, 1" offset="227352" size="256" />
			<output>
				<port id="0" precision="FP32">
					<dim>1</dim>
					<dim>64</dim>
					<dim>1</dim>
					<dim>1</dim>
				</port>
			</output>
		</layer>
		<layer id="98" name="/neck/lateral_convs.0/conv/Conv" type="Add" version="opset1">
			<data auto_broadcast="numpy" />
			<input>
				<port id="0" precision="FP32">
					<dim>1</dim>
					<dim>64</dim>
					<dim>100</dim>
					<dim>124</dim>
				</port>
				<port id="1" precision="FP32">
					<dim>1</dim>
					<dim>64</dim>
					<dim>1</dim>
					<dim>1</dim>
				</port>
			</input>
			<output>
				<port id="2" precision="FP32" names="/neck/lateral_convs.0/conv/Conv_output_0">
					<dim>1</dim>
					<dim>64</dim>
					<dim>100</dim>
					<dim>124</dim>
				</port>
			</output>
		</layer>
		<layer id="99" name="onnx::Conv_2546" type="Const" version="opset1">
			<data element_type="f32" shape="192, 32, 1, 1" offset="227608" size="24576" />
			<output>
				<port id="0" precision="FP32" names="onnx::Conv_2546">
					<dim>192</dim>
					<dim>32</dim>
					<dim>1</dim>
					<dim>1</dim>
				</port>
			</output>
		</layer>
		<layer id="100" name="/backbone/stage4/unit1/conv1/conv/Conv/WithoutBiases" type="Convolution" version="opset1">
			<data strides="1, 1" dilations="1, 1" pads_begin="0, 0" pads_end="0, 0" auto_pad="explicit" />
			<input>
				<port id="0" precision="FP32">
					<dim>1</dim>
					<dim>32</dim>
					<dim>100</dim>
					<dim>124</dim>
				</port>
				<port id="1" precision="FP32">
					<dim>192</dim>
					<dim>32</dim>
					<dim>1</dim>
					<dim>1</dim>
				</port>
			</input>
			<output>
				<port id="2" precision="FP32">
					<dim>1</dim>
					<dim>192</dim>
					<dim>100</dim>
					<dim>124</dim>
				</port>
			</output>
		</layer>
		<layer id="101" name="Reshape_747" type="Const" version="opset1">
			<data element_type="f32" shape="1, 192, 1, 1" offset="252184" size="768" />
			<output>
				<port id="0" precision="FP32">
					<dim>1</dim>
					<dim>192</dim>
					<dim>1</dim>
					<dim>1</dim>
				</port>
			</output>
		</layer>
		<layer id="102" name="/backbone/stage4/unit1/conv1/conv/Conv" type="Add" version="opset1">
			<data auto_broadcast="numpy" />
			<input>
				<port id="0" precision="FP32">
					<dim>1</dim>
					<dim>192</dim>
					<dim>100</dim>
					<dim>124</dim>
				</port>
				<port id="1" precision="FP32">
					<dim>1</dim>
					<dim>192</dim>
					<dim>1</dim>
					<dim>1</dim>
				</port>
			</input>
			<output>
				<port id="2" precision="FP32" names="/backbone/stage4/unit1/conv1/conv/Conv_output_0">
					<dim>1</dim>
					<dim>192</dim>
					<dim>100</dim>
					<dim>124</dim>
				</port>
			</output>
		</layer>
		<layer id="103" name="/backbone/stage4/unit1/conv1/activ/Clip" type="Clamp" version="opset1">
			<data min="0" max="6" />
			<input>
				<port id="0" precision="FP32">
					<dim>1</dim>
					<dim>192</dim>
					<dim>100</dim>
					<dim>124</dim>
				</port>
			</input>
			<output>
				<port id="1" precision="FP32" names="/backbone/stage4/unit1/conv1/activ/Clip_output_0">
					<dim>1</dim>
					<dim>192</dim>
					<dim>100</dim>
					<dim>124</dim>
				</port>
			</output>
		</layer>
		<layer id="104" name="Reshape_760" type="Const" version="opset1">
			<data element_type="f32" shape="192, 1, 1, 3, 3" offset="252952" size="6912" />
			<output>
				<port id="0" precision="FP32">
					<dim>192</dim>
					<dim>1</dim>
					<dim>1</dim>
					<dim>3</dim>
					<dim>3</dim>
				</port>
			</output>
		</layer>
		<layer id="105" name="/backbone/stage4/unit1/conv2/conv/Conv/WithoutBiases" type="GroupConvolution" version="opset1">
			<data strides="2, 2" pads_begin="1, 1" pads_end="1, 1" dilations="1, 1" auto_pad="explicit" />
			<input>
				<port id="0" precision="FP32">
					<dim>1</dim>
					<dim>192</dim>
					<dim>100</dim>
					<dim>124</dim>
				</port>
				<port id="1" precision="FP32">
					<dim>192</dim>
					<dim>1</dim>
					<dim>1</dim>
					<dim>3</dim>
					<dim>3</dim>
				</port>
			</input>
			<output>
				<port id="2" precision="FP32">
					<dim>1</dim>
					<dim>192</dim>
					<dim>50</dim>
					<dim>62</dim>
				</port>
			</output>
		</layer>
		<layer id="106" name="Reshape_810" type="Const" version="opset1">
			<data element_type="f32" shape="1, 192, 1, 1" offset="259864" size="768" />
			<output>
				<port id="0" precision="FP32">
					<dim>1</dim>
					<dim>192</dim>
					<dim>1</dim>
					<dim>1</dim>
				</port>
			</output>
		</layer>
		<layer id="107" name="/backbone/stage4/unit1/conv2/conv/Conv" type="Add" version="opset1">
			<data auto_broadcast="numpy" />
			<input>
				<port id="0" precision="FP32">
					<dim>1</dim>
					<dim>192</dim>
					<dim>50</dim>
					<dim>62</dim>
				</port>
				<port id="1" precision="FP32">
					<dim>1</dim>
					<dim>192</dim>
					<dim>1</dim>
					<dim>1</dim>
				</port>
			</input>
			<output>
				<port id="2" precision="FP32" names="/backbone/stage4/unit1/conv2/conv/Conv_output_0">
					<dim>1</dim>
					<dim>192</dim>
					<dim>50</dim>
					<dim>62</dim>
				</port>
			</output>
		</layer>
		<layer id="108" name="/backbone/stage4/unit1/conv2/activ/Clip" type="Clamp" version="opset1">
			<data min="0" max="6" />
			<input>
				<port id="0" precision="FP32">
					<dim>1</dim>
					<dim>192</dim>
					<dim>50</dim>
					<dim>62</dim>
				</port>
			</input>
			<output>
				<port id="1" precision="FP32" names="/backbone/stage4/unit1/conv2/activ/Clip_output_0">
					<dim>1</dim>
					<dim>192</dim>
					<dim>50</dim>
					<dim>62</dim>
				</port>
			</output>
		</layer>
		<layer id="109" name="onnx::Conv_2552" type="Const" version="opset1">
			<data element_type="f32" shape="64, 192, 1, 1" offset="260632" size="49152" />
			<output>
				<port id="0" precision="FP32" names="onnx::Conv_2552">
					<dim>64</dim>
					<dim>192</dim>
					<dim>1</dim>
					<dim>1</dim>
				</port>
			</output>
		</layer>
		<layer id="110" name="/backbone/stage4/unit1/conv3/conv/Conv/WithoutBiases" type="Convolution" version="opset1">
			<data strides="1, 1" dilations="1, 1" pads_begin="0, 0" pads_end="0, 0" auto_pad="explicit" />
			<input>
				<port id="0" precision="FP32">
					<dim>1</dim>
					<dim>192</dim>
					<dim>50</dim>
					<dim>62</dim>
				</port>
				<port id="1" precision="FP32">
					<dim>64</dim>
					<dim>192</dim>
					<dim>1</dim>
					<dim>1</dim>
				</port>
			</input>
			<output>
				<port id="2" precision="FP32">
					<dim>1</dim>
					<dim>64</dim>
					<dim>50</dim>
					<dim>62</dim>
				</port>
			</output>
		</layer>
		<layer id="111" name="Reshape_827" type="Const" version="opset1">
			<data element_type="f32" shape="1, 64, 1, 1" offset="309784" size="256" />
			<output>
				<port id="0" precision="FP32">
					<dim>1</dim>
					<dim>64</dim>
					<dim>1</dim>
					<dim>1</dim>
				</port>
			</output>
		</layer>
		<layer id="112" name="/backbone/stage4/unit1/conv3/conv/Conv" type="Add" version="opset1">
			<data auto_broadcast="numpy" />
			<input>
				<port id="0" precision="FP32">
					<dim>1</dim>
					<dim>64</dim>
					<dim>50</dim>
					<dim>62</dim>
				</port>
				<port id="1" precision="FP32">
					<dim>1</dim>
					<dim>64</dim>
					<dim>1</dim>
					<dim>1</dim>
				</port>
			</input>
			<output>
				<port id="2" precision="FP32" names="/backbone/stage4/unit1/conv3/conv/Conv_output_0">
					<dim>1</dim>
					<dim>64</dim>
					<dim>50</dim>
					<dim>62</dim>
				</port>
			</output>
		</layer>
		<layer id="113" name="onnx::Conv_2555" type="Const" version="opset1">
			<data element_type="f32" shape="384, 64, 1, 1" offset="310040" size="98304" />
			<output>
				<port id="0" precision="FP32" names="onnx::Conv_2555">
					<dim>384</dim>
					<dim>64</dim>
					<dim>1</dim>
					<dim>1</dim>
				</port>
			</output>
		</layer>
		<layer id="114" name="/backbone/stage4/unit2/conv1/conv/Conv/WithoutBiases" type="Convolution" version="opset1">
			<data strides="1, 1" dilations="1, 1" pads_begin="0, 0" pads_end="0, 0" auto_pad="explicit" />
			<input>
				<port id="0" precision="FP32">
					<dim>1</dim>
					<dim>64</dim>
					<dim>50</dim>
					<dim>62</dim>
				</port>
				<port id="1" precision="FP32">
					<dim>384</dim>
					<dim>64</dim>
					<dim>1</dim>
					<dim>1</dim>
				</port>
			</input>
			<output>
				<port id="2" precision="FP32">
					<dim>1</dim>
					<dim>384</dim>
					<dim>50</dim>
					<dim>62</dim>
				</port>
			</output>
		</layer>
		<layer id="115" name="Reshape_840" type="Const" version="opset1">
			<data element_type="f32" shape="1, 384, 1, 1" offset="408344" size="1536" />
			<output>
				<port id="0" precision="FP32">
					<dim>1</dim>
					<dim>384</dim>
					<dim>1</dim>
					<dim>1</dim>
				</port>
			</output>
		</layer>
		<layer id="116" name="/backbone/stage4/unit2/conv1/conv/Conv" type="Add" version="opset1">
			<data auto_broadcast="numpy" />
			<input>
				<port id="0" precision="FP32">
					<dim>1</dim>
					<dim>384</dim>
					<dim>50</dim>
					<dim>62</dim>
				</port>
				<port id="1" precision="FP32">
					<dim>1</dim>
					<dim>384</dim>
					<dim>1</dim>
					<dim>1</dim>
				</port>
			</input>
			<output>
				<port id="2" precision="FP32" names="/backbone/stage4/unit2/conv1/conv/Conv_output_0">
					<dim>1</dim>
					<dim>384</dim>
					<dim>50</dim>
					<dim>62</dim>
				</port>
			</output>
		</layer>
		<layer id="117" name="/backbone/stage4/unit2/conv1/activ/Clip" type="Clamp" version="opset1">
			<data min="0" max="6" />
			<input>
				<port id="0" precision="FP32">
					<dim>1</dim>
					<dim>384</dim>
					<dim>50</dim>
					<dim>62</dim>
				</port>
			</input>
			<output>
				<port id="1" precision="FP32" names="/backbone/stage4/unit2/conv1/activ/Clip_output_0">
					<dim>1</dim>
					<dim>384</dim>
					<dim>50</dim>
					<dim>62</dim>
				</port>
			</output>
		</layer>
		<layer id="118" name="Reshape_853" type="Const" version="opset1">
			<data element_type="f32" shape="384, 1, 1, 3, 3" offset="409880" size="13824" />
			<output>
				<port id="0" precision="FP32">
					<dim>384</dim>
					<dim>1</dim>
					<dim>1</dim>
					<dim>3</dim>
					<dim>3</dim>
				</port>
			</output>
		</layer>
		<layer id="119" name="/backbone/stage4/unit2/conv2/conv/Conv/WithoutBiases" type="GroupConvolution" version="opset1">
			<data strides="1, 1" pads_begin="1, 1" pads_end="1, 1" dilations="1, 1" auto_pad="explicit" />
			<input>
				<port id="0" precision="FP32">
					<dim>1</dim>
					<dim>384</dim>
					<dim>50</dim>
					<dim>62</dim>
				</port>
				<port id="1" precision="FP32">
					<dim>384</dim>
					<dim>1</dim>
					<dim>1</dim>
					<dim>3</dim>
					<dim>3</dim>
				</port>
			</input>
			<output>
				<port id="2" precision="FP32">
					<dim>1</dim>
					<dim>384</dim>
					<dim>50</dim>
					<dim>62</dim>
				</port>
			</output>
		</layer>
		<layer id="120" name="Reshape_903" type="Const" version="opset1">
			<data element_type="f32" shape="1, 384, 1, 1" offset="423704" size="1536" />
			<output>
				<port id="0" precision="FP32">
					<dim>1</dim>
					<dim>384</dim>
					<dim>1</dim>
					<dim>1</dim>
				</port>
			</output>
		</layer>
		<layer id="121" name="/backbone/stage4/unit2/conv2/conv/Conv" type="Add" version="opset1">
			<data auto_broadcast="numpy" />
			<input>
				<port id="0" precision="FP32">
					<dim>1</dim>
					<dim>384</dim>
					<dim>50</dim>
					<dim>62</dim>
				</port>
				<port id="1" precision="FP32">
					<dim>1</dim>
					<dim>384</dim>
					<dim>1</dim>
					<dim>1</dim>
				</port>
			</input>
			<output>
				<port id="2" precision="FP32" names="/backbone/stage4/unit2/conv2/conv/Conv_output_0">
					<dim>1</dim>
					<dim>384</dim>
					<dim>50</dim>
					<dim>62</dim>
				</port>
			</output>
		</layer>
		<layer id="122" name="/backbone/stage4/unit2/conv2/activ/Clip" type="Clamp" version="opset1">
			<data min="0" max="6" />
			<input>
				<port id="0" precision="FP32">
					<dim>1</dim>
					<dim>384</dim>
					<dim>50</dim>
					<dim>62</dim>
				</port>
			</input>
			<output>
				<port id="1" precision="FP32" names="/backbone/stage4/unit2/conv2/activ/Clip_output_0">
					<dim>1</dim>
					<dim>384</dim>
					<dim>50</dim>
					<dim>62</dim>
				</port>
			</output>
		</layer>
		<layer id="123" name="onnx::Conv_2561" type="Const" version="opset1">
			<data element_type="f32" shape="64, 384, 1, 1" offset="425240" size="98304" />
			<output>
				<port id="0" precision="FP32" names="onnx::Conv_2561">
					<dim>64</dim>
					<dim>384</dim>
					<dim>1</dim>
					<dim>1</dim>
				</port>
			</output>
		</layer>
		<layer id="124" name="/backbone/stage4/unit2/conv3/conv/Conv/WithoutBiases" type="Convolution" version="opset1">
			<data strides="1, 1" dilations="1, 1" pads_begin="0, 0" pads_end="0, 0" auto_pad="explicit" />
			<input>
				<port id="0" precision="FP32">
					<dim>1</dim>
					<dim>384</dim>
					<dim>50</dim>
					<dim>62</dim>
				</port>
				<port id="1" precision="FP32">
					<dim>64</dim>
					<dim>384</dim>
					<dim>1</dim>
					<dim>1</dim>
				</port>
			</input>
			<output>
				<port id="2" precision="FP32">
					<dim>1</dim>
					<dim>64</dim>
					<dim>50</dim>
					<dim>62</dim>
				</port>
			</output>
		</layer>
		<layer id="125" name="Reshape_920" type="Const" version="opset1">
			<data element_type="f32" shape="1, 64, 1, 1" offset="523544" size="256" />
			<output>
				<port id="0" precision="FP32">
					<dim>1</dim>
					<dim>64</dim>
					<dim>1</dim>
					<dim>1</dim>
				</port>
			</output>
		</layer>
		<layer id="126" name="/backbone/stage4/unit2/conv3/conv/Conv" type="Add" version="opset1">
			<data auto_broadcast="numpy" />
			<input>
				<port id="0" precision="FP32">
					<dim>1</dim>
					<dim>64</dim>
					<dim>50</dim>
					<dim>62</dim>
				</port>
				<port id="1" precision="FP32">
					<dim>1</dim>
					<dim>64</dim>
					<dim>1</dim>
					<dim>1</dim>
				</port>
			</input>
			<output>
				<port id="2" precision="FP32" names="/backbone/stage4/unit2/conv3/conv/Conv_output_0">
					<dim>1</dim>
					<dim>64</dim>
					<dim>50</dim>
					<dim>62</dim>
				</port>
			</output>
		</layer>
		<layer id="127" name="/backbone/stage4/unit2/Add" type="Add" version="opset1">
			<data auto_broadcast="numpy" />
			<input>
				<port id="0" precision="FP32">
					<dim>1</dim>
					<dim>64</dim>
					<dim>50</dim>
					<dim>62</dim>
				</port>
				<port id="1" precision="FP32">
					<dim>1</dim>
					<dim>64</dim>
					<dim>50</dim>
					<dim>62</dim>
				</port>
			</input>
			<output>
				<port id="2" precision="FP32" names="/backbone/stage4/unit2/Add_output_0">
					<dim>1</dim>
					<dim>64</dim>
					<dim>50</dim>
					<dim>62</dim>
				</port>
			</output>
		</layer>
		<layer id="128" name="onnx::Conv_2564" type="Const" version="opset1">
			<data element_type="f32" shape="384, 64, 1, 1" offset="523800" size="98304" />
			<output>
				<port id="0" precision="FP32" names="onnx::Conv_2564">
					<dim>384</dim>
					<dim>64</dim>
					<dim>1</dim>
					<dim>1</dim>
				</port>
			</output>
		</layer>
		<layer id="129" name="/backbone/stage4/unit3/conv1/conv/Conv/WithoutBiases" type="Convolution" version="opset1">
			<data strides="1, 1" dilations="1, 1" pads_begin="0, 0" pads_end="0, 0" auto_pad="explicit" />
			<input>
				<port id="0" precision="FP32">
					<dim>1</dim>
					<dim>64</dim>
					<dim>50</dim>
					<dim>62</dim>
				</port>
				<port id="1" precision="FP32">
					<dim>384</dim>
					<dim>64</dim>
					<dim>1</dim>
					<dim>1</dim>
				</port>
			</input>
			<output>
				<port id="2" precision="FP32">
					<dim>1</dim>
					<dim>384</dim>
					<dim>50</dim>
					<dim>62</dim>
				</port>
			</output>
		</layer>
		<layer id="130" name="Reshape_934" type="Const" version="opset1">
			<data element_type="f32" shape="1, 384, 1, 1" offset="622104" size="1536" />
			<output>
				<port id="0" precision="FP32">
					<dim>1</dim>
					<dim>384</dim>
					<dim>1</dim>
					<dim>1</dim>
				</port>
			</output>
		</layer>
		<layer id="131" name="/backbone/stage4/unit3/conv1/conv/Conv" type="Add" version="opset1">
			<data auto_broadcast="numpy" />
			<input>
				<port id="0" precision="FP32">
					<dim>1</dim>
					<dim>384</dim>
					<dim>50</dim>
					<dim>62</dim>
				</port>
				<port id="1" precision="FP32">
					<dim>1</dim>
					<dim>384</dim>
					<dim>1</dim>
					<dim>1</dim>
				</port>
			</input>
			<output>
				<port id="2" precision="FP32" names="/backbone/stage4/unit3/conv1/conv/Conv_output_0">
					<dim>1</dim>
					<dim>384</dim>
					<dim>50</dim>
					<dim>62</dim>
				</port>
			</output>
		</layer>
		<layer id="132" name="/backbone/stage4/unit3/conv1/activ/Clip" type="Clamp" version="opset1">
			<data min="0" max="6" />
			<input>
				<port id="0" precision="FP32">
					<dim>1</dim>
					<dim>384</dim>
					<dim>50</dim>
					<dim>62</dim>
				</port>
			</input>
			<output>
				<port id="1" precision="FP32" names="/backbone/stage4/unit3/conv1/activ/Clip_output_0">
					<dim>1</dim>
					<dim>384</dim>
					<dim>50</dim>
					<dim>62</dim>
				</port>
			</output>
		</layer>
		<layer id="133" name="Reshape_947" type="Const" version="opset1">
			<data element_type="f32" shape="384, 1, 1, 3, 3" offset="623640" size="13824" />
			<output>
				<port id="0" precision="FP32">
					<dim>384</dim>
					<dim>1</dim>
					<dim>1</dim>
					<dim>3</dim>
					<dim>3</dim>
				</port>
			</output>
		</layer>
		<layer id="134" name="/backbone/stage4/unit3/conv2/conv/Conv/WithoutBiases" type="GroupConvolution" version="opset1">
			<data strides="1, 1" pads_begin="1, 1" pads_end="1, 1" dilations="1, 1" auto_pad="explicit" />
			<input>
				<port id="0" precision="FP32">
					<dim>1</dim>
					<dim>384</dim>
					<dim>50</dim>
					<dim>62</dim>
				</port>
				<port id="1" precision="FP32">
					<dim>384</dim>
					<dim>1</dim>
					<dim>1</dim>
					<dim>3</dim>
					<dim>3</dim>
				</port>
			</input>
			<output>
				<port id="2" precision="FP32">
					<dim>1</dim>
					<dim>384</dim>
					<dim>50</dim>
					<dim>62</dim>
				</port>
			</output>
		</layer>
		<layer id="135" name="Reshape_997" type="Const" version="opset1">
			<data element_type="f32" shape="1, 384, 1, 1" offset="637464" size="1536" />
			<output>
				<port id="0" precision="FP32">
					<dim>1</dim>
					<dim>384</dim>
					<dim>1</dim>
					<dim>1</dim>
				</port>
			</output>
		</layer>
		<layer id="136" name="/backbone/stage4/unit3/conv2/conv/Conv" type="Add" version="opset1">
			<data auto_broadcast="numpy" />
			<input>
				<port id="0" precision="FP32">
					<dim>1</dim>
					<dim>384</dim>
					<dim>50</dim>
					<dim>62</dim>
				</port>
				<port id="1" precision="FP32">
					<dim>1</dim>
					<dim>384</dim>
					<dim>1</dim>
					<dim>1</dim>
				</port>
			</input>
			<output>
				<port id="2" precision="FP32" names="/backbone/stage4/unit3/conv2/conv/Conv_output_0">
					<dim>1</dim>
					<dim>384</dim>
					<dim>50</dim>
					<dim>62</dim>
				</port>
			</output>
		</layer>
		<layer id="137" name="/backbone/stage4/unit3/conv2/activ/Clip" type="Clamp" version="opset1">
			<data min="0" max="6" />
			<input>
				<port id="0" precision="FP32">
					<dim>1</dim>
					<dim>384</dim>
					<dim>50</dim>
					<dim>62</dim>
				</port>
			</input>
			<output>
				<port id="1" precision="FP32" names="/backbone/stage4/unit3/conv2/activ/Clip_output_0">
					<dim>1</dim>
					<dim>384</dim>
					<dim>50</dim>
					<dim>62</dim>
				</port>
			</output>
		</layer>
		<layer id="138" name="onnx::Conv_2570" type="Const" version="opset1">
			<data element_type="f32" shape="64, 384, 1, 1" offset="639000" size="98304" />
			<output>
				<port id="0" precision="FP32" names="onnx::Conv_2570">
					<dim>64</dim>
					<dim>384</dim>
					<dim>1</dim>
					<dim>1</dim>
				</port>
			</output>
		</layer>
		<layer id="139" name="/backbone/stage4/unit3/conv3/conv/Conv/WithoutBiases" type="Convolution" version="opset1">
			<data strides="1, 1" dilations="1, 1" pads_begin="0, 0" pads_end="0, 0" auto_pad="explicit" />
			<input>
				<port id="0" precision="FP32">
					<dim>1</dim>
					<dim>384</dim>
					<dim>50</dim>
					<dim>62</dim>
				</port>
				<port id="1" precision="FP32">
					<dim>64</dim>
					<dim>384</dim>
					<dim>1</dim>
					<dim>1</dim>
				</port>
			</input>
			<output>
				<port id="2" precision="FP32">
					<dim>1</dim>
					<dim>64</dim>
					<dim>50</dim>
					<dim>62</dim>
				</port>
			</output>
		</layer>
		<layer id="140" name="Reshape_1014" type="Const" version="opset1">
			<data element_type="f32" shape="1, 64, 1, 1" offset="737304" size="256" />
			<output>
				<port id="0" precision="FP32">
					<dim>1</dim>
					<dim>64</dim>
					<dim>1</dim>
					<dim>1</dim>
				</port>
			</output>
		</layer>
		<layer id="141" name="/backbone/stage4/unit3/conv3/conv/Conv" type="Add" version="opset1">
			<data auto_broadcast="numpy" />
			<input>
				<port id="0" precision="FP32">
					<dim>1</dim>
					<dim>64</dim>
					<dim>50</dim>
					<dim>62</dim>
				</port>
				<port id="1" precision="FP32">
					<dim>1</dim>
					<dim>64</dim>
					<dim>1</dim>
					<dim>1</dim>
				</port>
			</input>
			<output>
				<port id="2" precision="FP32" names="/backbone/stage4/unit3/conv3/conv/Conv_output_0">
					<dim>1</dim>
					<dim>64</dim>
					<dim>50</dim>
					<dim>62</dim>
				</port>
			</output>
		</layer>
		<layer id="142" name="/backbone/stage4/unit3/Add" type="Add" version="opset1">
			<data auto_broadcast="numpy" />
			<input>
				<port id="0" precision="FP32">
					<dim>1</dim>
					<dim>64</dim>
					<dim>50</dim>
					<dim>62</dim>
				</port>
				<port id="1" precision="FP32">
					<dim>1</dim>
					<dim>64</dim>
					<dim>50</dim>
					<dim>62</dim>
				</port>
			</input>
			<output>
				<port id="2" precision="FP32" names="/backbone/stage4/unit3/Add_output_0">
					<dim>1</dim>
					<dim>64</dim>
					<dim>50</dim>
					<dim>62</dim>
				</port>
			</output>
		</layer>
		<layer id="143" name="onnx::Conv_2573" type="Const" version="opset1">
			<data element_type="f32" shape="384, 64, 1, 1" offset="737560" size="98304" />
			<output>
				<port id="0" precision="FP32" names="onnx::Conv_2573">
					<dim>384</dim>
					<dim>64</dim>
					<dim>1</dim>
					<dim>1</dim>
				</port>
			</output>
		</layer>
		<layer id="144" name="/backbone/stage4/unit4/conv1/conv/Conv/WithoutBiases" type="Convolution" version="opset1">
			<data strides="1, 1" dilations="1, 1" pads_begin="0, 0" pads_end="0, 0" auto_pad="explicit" />
			<input>
				<port id="0" precision="FP32">
					<dim>1</dim>
					<dim>64</dim>
					<dim>50</dim>
					<dim>62</dim>
				</port>
				<port id="1" precision="FP32">
					<dim>384</dim>
					<dim>64</dim>
					<dim>1</dim>
					<dim>1</dim>
				</port>
			</input>
			<output>
				<port id="2" precision="FP32">
					<dim>1</dim>
					<dim>384</dim>
					<dim>50</dim>
					<dim>62</dim>
				</port>
			</output>
		</layer>
		<layer id="145" name="Reshape_1028" type="Const" version="opset1">
			<data element_type="f32" shape="1, 384, 1, 1" offset="835864" size="1536" />
			<output>
				<port id="0" precision="FP32">
					<dim>1</dim>
					<dim>384</dim>
					<dim>1</dim>
					<dim>1</dim>
				</port>
			</output>
		</layer>
		<layer id="146" name="/backbone/stage4/unit4/conv1/conv/Conv" type="Add" version="opset1">
			<data auto_broadcast="numpy" />
			<input>
				<port id="0" precision="FP32">
					<dim>1</dim>
					<dim>384</dim>
					<dim>50</dim>
					<dim>62</dim>
				</port>
				<port id="1" precision="FP32">
					<dim>1</dim>
					<dim>384</dim>
					<dim>1</dim>
					<dim>1</dim>
				</port>
			</input>
			<output>
				<port id="2" precision="FP32" names="/backbone/stage4/unit4/conv1/conv/Conv_output_0">
					<dim>1</dim>
					<dim>384</dim>
					<dim>50</dim>
					<dim>62</dim>
				</port>
			</output>
		</layer>
		<layer id="147" name="/backbone/stage4/unit4/conv1/activ/Clip" type="Clamp" version="opset1">
			<data min="0" max="6" />
			<input>
				<port id="0" precision="FP32">
					<dim>1</dim>
					<dim>384</dim>
					<dim>50</dim>
					<dim>62</dim>
				</port>
			</input>
			<output>
				<port id="1" precision="FP32" names="/backbone/stage4/unit4/conv1/activ/Clip_output_0">
					<dim>1</dim>
					<dim>384</dim>
					<dim>50</dim>
					<dim>62</dim>
				</port>
			</output>
		</layer>
		<layer id="148" name="Reshape_1041" type="Const" version="opset1">
			<data element_type="f32" shape="384, 1, 1, 3, 3" offset="837400" size="13824" />
			<output>
				<port id="0" precision="FP32">
					<dim>384</dim>
					<dim>1</dim>
					<dim>1</dim>
					<dim>3</dim>
					<dim>3</dim>
				</port>
			</output>
		</layer>
		<layer id="149" name="/backbone/stage4/unit4/conv2/conv/Conv/WithoutBiases" type="GroupConvolution" version="opset1">
			<data strides="1, 1" pads_begin="1, 1" pads_end="1, 1" dilations="1, 1" auto_pad="explicit" />
			<input>
				<port id="0" precision="FP32">
					<dim>1</dim>
					<dim>384</dim>
					<dim>50</dim>
					<dim>62</dim>
				</port>
				<port id="1" precision="FP32">
					<dim>384</dim>
					<dim>1</dim>
					<dim>1</dim>
					<dim>3</dim>
					<dim>3</dim>
				</port>
			</input>
			<output>
				<port id="2" precision="FP32">
					<dim>1</dim>
					<dim>384</dim>
					<dim>50</dim>
					<dim>62</dim>
				</port>
			</output>
		</layer>
		<layer id="150" name="Reshape_1091" type="Const" version="opset1">
			<data element_type="f32" shape="1, 384, 1, 1" offset="851224" size="1536" />
			<output>
				<port id="0" precision="FP32">
					<dim>1</dim>
					<dim>384</dim>
					<dim>1</dim>
					<dim>1</dim>
				</port>
			</output>
		</layer>
		<layer id="151" name="/backbone/stage4/unit4/conv2/conv/Conv" type="Add" version="opset1">
			<data auto_broadcast="numpy" />
			<input>
				<port id="0" precision="FP32">
					<dim>1</dim>
					<dim>384</dim>
					<dim>50</dim>
					<dim>62</dim>
				</port>
				<port id="1" precision="FP32">
					<dim>1</dim>
					<dim>384</dim>
					<dim>1</dim>
					<dim>1</dim>
				</port>
			</input>
			<output>
				<port id="2" precision="FP32" names="/backbone/stage4/unit4/conv2/conv/Conv_output_0">
					<dim>1</dim>
					<dim>384</dim>
					<dim>50</dim>
					<dim>62</dim>
				</port>
			</output>
		</layer>
		<layer id="152" name="/backbone/stage4/unit4/conv2/activ/Clip" type="Clamp" version="opset1">
			<data min="0" max="6" />
			<input>
				<port id="0" precision="FP32">
					<dim>1</dim>
					<dim>384</dim>
					<dim>50</dim>
					<dim>62</dim>
				</port>
			</input>
			<output>
				<port id="1" precision="FP32" names="/backbone/stage4/unit4/conv2/activ/Clip_output_0">
					<dim>1</dim>
					<dim>384</dim>
					<dim>50</dim>
					<dim>62</dim>
				</port>
			</output>
		</layer>
		<layer id="153" name="onnx::Conv_2579" type="Const" version="opset1">
			<data element_type="f32" shape="64, 384, 1, 1" offset="852760" size="98304" />
			<output>
				<port id="0" precision="FP32" names="onnx::Conv_2579">
					<dim>64</dim>
					<dim>384</dim>
					<dim>1</dim>
					<dim>1</dim>
				</port>
			</output>
		</layer>
		<layer id="154" name="/backbone/stage4/unit4/conv3/conv/Conv/WithoutBiases" type="Convolution" version="opset1">
			<data strides="1, 1" dilations="1, 1" pads_begin="0, 0" pads_end="0, 0" auto_pad="explicit" />
			<input>
				<port id="0" precision="FP32">
					<dim>1</dim>
					<dim>384</dim>
					<dim>50</dim>
					<dim>62</dim>
				</port>
				<port id="1" precision="FP32">
					<dim>64</dim>
					<dim>384</dim>
					<dim>1</dim>
					<dim>1</dim>
				</port>
			</input>
			<output>
				<port id="2" precision="FP32">
					<dim>1</dim>
					<dim>64</dim>
					<dim>50</dim>
					<dim>62</dim>
				</port>
			</output>
		</layer>
		<layer id="155" name="Reshape_1108" type="Const" version="opset1">
			<data element_type="f32" shape="1, 64, 1, 1" offset="951064" size="256" />
			<output>
				<port id="0" precision="FP32">
					<dim>1</dim>
					<dim>64</dim>
					<dim>1</dim>
					<dim>1</dim>
				</port>
			</output>
		</layer>
		<layer id="156" name="/backbone/stage4/unit4/conv3/conv/Conv" type="Add" version="opset1">
			<data auto_broadcast="numpy" />
			<input>
				<port id="0" precision="FP32">
					<dim>1</dim>
					<dim>64</dim>
					<dim>50</dim>
					<dim>62</dim>
				</port>
				<port id="1" precision="FP32">
					<dim>1</dim>
					<dim>64</dim>
					<dim>1</dim>
					<dim>1</dim>
				</port>
			</input>
			<output>
				<port id="2" precision="FP32" names="/backbone/stage4/unit4/conv3/conv/Conv_output_0">
					<dim>1</dim>
					<dim>64</dim>
					<dim>50</dim>
					<dim>62</dim>
				</port>
			</output>
		</layer>
		<layer id="157" name="/backbone/stage4/unit4/Add" type="Add" version="opset1">
			<data auto_broadcast="numpy" />
			<input>
				<port id="0" precision="FP32">
					<dim>1</dim>
					<dim>64</dim>
					<dim>50</dim>
					<dim>62</dim>
				</port>
				<port id="1" precision="FP32">
					<dim>1</dim>
					<dim>64</dim>
					<dim>50</dim>
					<dim>62</dim>
				</port>
			</input>
			<output>
				<port id="2" precision="FP32" names="/backbone/stage4/unit4/Add_output_0">
					<dim>1</dim>
					<dim>64</dim>
					<dim>50</dim>
					<dim>62</dim>
				</port>
			</output>
		</layer>
		<layer id="158" name="onnx::Conv_2582" type="Const" version="opset1">
			<data element_type="f32" shape="384, 64, 1, 1" offset="951320" size="98304" />
			<output>
				<port id="0" precision="FP32" names="onnx::Conv_2582">
					<dim>384</dim>
					<dim>64</dim>
					<dim>1</dim>
					<dim>1</dim>
				</port>
			</output>
		</layer>
		<layer id="159" name="/backbone/stage4/unit5/conv1/conv/Conv/WithoutBiases" type="Convolution" version="opset1">
			<data strides="1, 1" dilations="1, 1" pads_begin="0, 0" pads_end="0, 0" auto_pad="explicit" />
			<input>
				<port id="0" precision="FP32">
					<dim>1</dim>
					<dim>64</dim>
					<dim>50</dim>
					<dim>62</dim>
				</port>
				<port id="1" precision="FP32">
					<dim>384</dim>
					<dim>64</dim>
					<dim>1</dim>
					<dim>1</dim>
				</port>
			</input>
			<output>
				<port id="2" precision="FP32">
					<dim>1</dim>
					<dim>384</dim>
					<dim>50</dim>
					<dim>62</dim>
				</port>
			</output>
		</layer>
		<layer id="160" name="Reshape_1122" type="Const" version="opset1">
			<data element_type="f32" shape="1, 384, 1, 1" offset="1049624" size="1536" />
			<output>
				<port id="0" precision="FP32">
					<dim>1</dim>
					<dim>384</dim>
					<dim>1</dim>
					<dim>1</dim>
				</port>
			</output>
		</layer>
		<layer id="161" name="/backbone/stage4/unit5/conv1/conv/Conv" type="Add" version="opset1">
			<data auto_broadcast="numpy" />
			<input>
				<port id="0" precision="FP32">
					<dim>1</dim>
					<dim>384</dim>
					<dim>50</dim>
					<dim>62</dim>
				</port>
				<port id="1" precision="FP32">
					<dim>1</dim>
					<dim>384</dim>
					<dim>1</dim>
					<dim>1</dim>
				</port>
			</input>
			<output>
				<port id="2" precision="FP32" names="/backbone/stage4/unit5/conv1/conv/Conv_output_0">
					<dim>1</dim>
					<dim>384</dim>
					<dim>50</dim>
					<dim>62</dim>
				</port>
			</output>
		</layer>
		<layer id="162" name="/backbone/stage4/unit5/conv1/activ/Clip" type="Clamp" version="opset1">
			<data min="0" max="6" />
			<input>
				<port id="0" precision="FP32">
					<dim>1</dim>
					<dim>384</dim>
					<dim>50</dim>
					<dim>62</dim>
				</port>
			</input>
			<output>
				<port id="1" precision="FP32" names="/backbone/stage4/unit5/conv1/activ/Clip_output_0">
					<dim>1</dim>
					<dim>384</dim>
					<dim>50</dim>
					<dim>62</dim>
				</port>
			</output>
		</layer>
		<layer id="163" name="Reshape_1135" type="Const" version="opset1">
			<data element_type="f32" shape="384, 1, 1, 3, 3" offset="1051160" size="13824" />
			<output>
				<port id="0" precision="FP32">
					<dim>384</dim>
					<dim>1</dim>
					<dim>1</dim>
					<dim>3</dim>
					<dim>3</dim>
				</port>
			</output>
		</layer>
		<layer id="164" name="/backbone/stage4/unit5/conv2/conv/Conv/WithoutBiases" type="GroupConvolution" version="opset1">
			<data strides="1, 1" pads_begin="1, 1" pads_end="1, 1" dilations="1, 1" auto_pad="explicit" />
			<input>
				<port id="0" precision="FP32">
					<dim>1</dim>
					<dim>384</dim>
					<dim>50</dim>
					<dim>62</dim>
				</port>
				<port id="1" precision="FP32">
					<dim>384</dim>
					<dim>1</dim>
					<dim>1</dim>
					<dim>3</dim>
					<dim>3</dim>
				</port>
			</input>
			<output>
				<port id="2" precision="FP32">
					<dim>1</dim>
					<dim>384</dim>
					<dim>50</dim>
					<dim>62</dim>
				</port>
			</output>
		</layer>
		<layer id="165" name="Reshape_1185" type="Const" version="opset1">
			<data element_type="f32" shape="1, 384, 1, 1" offset="1064984" size="1536" />
			<output>
				<port id="0" precision="FP32">
					<dim>1</dim>
					<dim>384</dim>
					<dim>1</dim>
					<dim>1</dim>
				</port>
			</output>
		</layer>
		<layer id="166" name="/backbone/stage4/unit5/conv2/conv/Conv" type="Add" version="opset1">
			<data auto_broadcast="numpy" />
			<input>
				<port id="0" precision="FP32">
					<dim>1</dim>
					<dim>384</dim>
					<dim>50</dim>
					<dim>62</dim>
				</port>
				<port id="1" precision="FP32">
					<dim>1</dim>
					<dim>384</dim>
					<dim>1</dim>
					<dim>1</dim>
				</port>
			</input>
			<output>
				<port id="2" precision="FP32" names="/backbone/stage4/unit5/conv2/conv/Conv_output_0">
					<dim>1</dim>
					<dim>384</dim>
					<dim>50</dim>
					<dim>62</dim>
				</port>
			</output>
		</layer>
		<layer id="167" name="/backbone/stage4/unit5/conv2/activ/Clip" type="Clamp" version="opset1">
			<data min="0" max="6" />
			<input>
				<port id="0" precision="FP32">
					<dim>1</dim>
					<dim>384</dim>
					<dim>50</dim>
					<dim>62</dim>
				</port>
			</input>
			<output>
				<port id="1" precision="FP32" names="/backbone/stage4/unit5/conv2/activ/Clip_output_0">
					<dim>1</dim>
					<dim>384</dim>
					<dim>50</dim>
					<dim>62</dim>
				</port>
			</output>
		</layer>
		<layer id="168" name="onnx::Conv_2588" type="Const" version="opset1">
			<data element_type="f32" shape="96, 384, 1, 1" offset="1066520" size="147456" />
			<output>
				<port id="0" precision="FP32" names="onnx::Conv_2588">
					<dim>96</dim>
					<dim>384</dim>
					<dim>1</dim>
					<dim>1</dim>
				</port>
			</output>
		</layer>
		<layer id="169" name="/backbone/stage4/unit5/conv3/conv/Conv/WithoutBiases" type="Convolution" version="opset1">
			<data strides="1, 1" dilations="1, 1" pads_begin="0, 0" pads_end="0, 0" auto_pad="explicit" />
			<input>
				<port id="0" precision="FP32">
					<dim>1</dim>
					<dim>384</dim>
					<dim>50</dim>
					<dim>62</dim>
				</port>
				<port id="1" precision="FP32">
					<dim>96</dim>
					<dim>384</dim>
					<dim>1</dim>
					<dim>1</dim>
				</port>
			</input>
			<output>
				<port id="2" precision="FP32">
					<dim>1</dim>
					<dim>96</dim>
					<dim>50</dim>
					<dim>62</dim>
				</port>
			</output>
		</layer>
		<layer id="170" name="Reshape_1202" type="Const" version="opset1">
			<data element_type="f32" shape="1, 96, 1, 1" offset="1213976" size="384" />
			<output>
				<port id="0" precision="FP32">
					<dim>1</dim>
					<dim>96</dim>
					<dim>1</dim>
					<dim>1</dim>
				</port>
			</output>
		</layer>
		<layer id="171" name="/backbone/stage4/unit5/conv3/conv/Conv" type="Add" version="opset1">
			<data auto_broadcast="numpy" />
			<input>
				<port id="0" precision="FP32">
					<dim>1</dim>
					<dim>96</dim>
					<dim>50</dim>
					<dim>62</dim>
				</port>
				<port id="1" precision="FP32">
					<dim>1</dim>
					<dim>96</dim>
					<dim>1</dim>
					<dim>1</dim>
				</port>
			</input>
			<output>
				<port id="2" precision="FP32" names="/backbone/stage4/unit5/conv3/conv/Conv_output_0">
					<dim>1</dim>
					<dim>96</dim>
					<dim>50</dim>
					<dim>62</dim>
				</port>
			</output>
		</layer>
		<layer id="172" name="onnx::Conv_2591" type="Const" version="opset1">
			<data element_type="f32" shape="576, 96, 1, 1" offset="1214360" size="221184" />
			<output>
				<port id="0" precision="FP32" names="onnx::Conv_2591">
					<dim>576</dim>
					<dim>96</dim>
					<dim>1</dim>
					<dim>1</dim>
				</port>
			</output>
		</layer>
		<layer id="173" name="/backbone/stage4/unit6/conv1/conv/Conv/WithoutBiases" type="Convolution" version="opset1">
			<data strides="1, 1" dilations="1, 1" pads_begin="0, 0" pads_end="0, 0" auto_pad="explicit" />
			<input>
				<port id="0" precision="FP32">
					<dim>1</dim>
					<dim>96</dim>
					<dim>50</dim>
					<dim>62</dim>
				</port>
				<port id="1" precision="FP32">
					<dim>576</dim>
					<dim>96</dim>
					<dim>1</dim>
					<dim>1</dim>
				</port>
			</input>
			<output>
				<port id="2" precision="FP32">
					<dim>1</dim>
					<dim>576</dim>
					<dim>50</dim>
					<dim>62</dim>
				</port>
			</output>
		</layer>
		<layer id="174" name="Reshape_1215" type="Const" version="opset1">
			<data element_type="f32" shape="1, 576, 1, 1" offset="1435544" size="2304" />
			<output>
				<port id="0" precision="FP32">
					<dim>1</dim>
					<dim>576</dim>
					<dim>1</dim>
					<dim>1</dim>
				</port>
			</output>
		</layer>
		<layer id="175" name="/backbone/stage4/unit6/conv1/conv/Conv" type="Add" version="opset1">
			<data auto_broadcast="numpy" />
			<input>
				<port id="0" precision="FP32">
					<dim>1</dim>
					<dim>576</dim>
					<dim>50</dim>
					<dim>62</dim>
				</port>
				<port id="1" precision="FP32">
					<dim>1</dim>
					<dim>576</dim>
					<dim>1</dim>
					<dim>1</dim>
				</port>
			</input>
			<output>
				<port id="2" precision="FP32" names="/backbone/stage4/unit6/conv1/conv/Conv_output_0">
					<dim>1</dim>
					<dim>576</dim>
					<dim>50</dim>
					<dim>62</dim>
				</port>
			</output>
		</layer>
		<layer id="176" name="/backbone/stage4/unit6/conv1/activ/Clip" type="Clamp" version="opset1">
			<data min="0" max="6" />
			<input>
				<port id="0" precision="FP32">
					<dim>1</dim>
					<dim>576</dim>
					<dim>50</dim>
					<dim>62</dim>
				</port>
			</input>
			<output>
				<port id="1" precision="FP32" names="/backbone/stage4/unit6/conv1/activ/Clip_output_0">
					<dim>1</dim>
					<dim>576</dim>
					<dim>50</dim>
					<dim>62</dim>
				</port>
			</output>
		</layer>
		<layer id="177" name="Reshape_1228" type="Const" version="opset1">
			<data element_type="f32" shape="576, 1, 1, 3, 3" offset="1437848" size="20736" />
			<output>
				<port id="0" precision="FP32">
					<dim>576</dim>
					<dim>1</dim>
					<dim>1</dim>
					<dim>3</dim>
					<dim>3</dim>
				</port>
			</output>
		</layer>
		<layer id="178" name="/backbone/stage4/unit6/conv2/conv/Conv/WithoutBiases" type="GroupConvolution" version="opset1">
			<data strides="1, 1" pads_begin="1, 1" pads_end="1, 1" dilations="1, 1" auto_pad="explicit" />
			<input>
				<port id="0" precision="FP32">
					<dim>1</dim>
					<dim>576</dim>
					<dim>50</dim>
					<dim>62</dim>
				</port>
				<port id="1" precision="FP32">
					<dim>576</dim>
					<dim>1</dim>
					<dim>1</dim>
					<dim>3</dim>
					<dim>3</dim>
				</port>
			</input>
			<output>
				<port id="2" precision="FP32">
					<dim>1</dim>
					<dim>576</dim>
					<dim>50</dim>
					<dim>62</dim>
				</port>
			</output>
		</layer>
		<layer id="179" name="Reshape_1278" type="Const" version="opset1">
			<data element_type="f32" shape="1, 576, 1, 1" offset="1458584" size="2304" />
			<output>
				<port id="0" precision="FP32">
					<dim>1</dim>
					<dim>576</dim>
					<dim>1</dim>
					<dim>1</dim>
				</port>
			</output>
		</layer>
		<layer id="180" name="/backbone/stage4/unit6/conv2/conv/Conv" type="Add" version="opset1">
			<data auto_broadcast="numpy" />
			<input>
				<port id="0" precision="FP32">
					<dim>1</dim>
					<dim>576</dim>
					<dim>50</dim>
					<dim>62</dim>
				</port>
				<port id="1" precision="FP32">
					<dim>1</dim>
					<dim>576</dim>
					<dim>1</dim>
					<dim>1</dim>
				</port>
			</input>
			<output>
				<port id="2" precision="FP32" names="/backbone/stage4/unit6/conv2/conv/Conv_output_0">
					<dim>1</dim>
					<dim>576</dim>
					<dim>50</dim>
					<dim>62</dim>
				</port>
			</output>
		</layer>
		<layer id="181" name="/backbone/stage4/unit6/conv2/activ/Clip" type="Clamp" version="opset1">
			<data min="0" max="6" />
			<input>
				<port id="0" precision="FP32">
					<dim>1</dim>
					<dim>576</dim>
					<dim>50</dim>
					<dim>62</dim>
				</port>
			</input>
			<output>
				<port id="1" precision="FP32" names="/backbone/stage4/unit6/conv2/activ/Clip_output_0">
					<dim>1</dim>
					<dim>576</dim>
					<dim>50</dim>
					<dim>62</dim>
				</port>
			</output>
		</layer>
		<layer id="182" name="onnx::Conv_2597" type="Const" version="opset1">
			<data element_type="f32" shape="96, 576, 1, 1" offset="1460888" size="221184" />
			<output>
				<port id="0" precision="FP32" names="onnx::Conv_2597">
					<dim>96</dim>
					<dim>576</dim>
					<dim>1</dim>
					<dim>1</dim>
				</port>
			</output>
		</layer>
		<layer id="183" name="/backbone/stage4/unit6/conv3/conv/Conv/WithoutBiases" type="Convolution" version="opset1">
			<data strides="1, 1" dilations="1, 1" pads_begin="0, 0" pads_end="0, 0" auto_pad="explicit" />
			<input>
				<port id="0" precision="FP32">
					<dim>1</dim>
					<dim>576</dim>
					<dim>50</dim>
					<dim>62</dim>
				</port>
				<port id="1" precision="FP32">
					<dim>96</dim>
					<dim>576</dim>
					<dim>1</dim>
					<dim>1</dim>
				</port>
			</input>
			<output>
				<port id="2" precision="FP32">
					<dim>1</dim>
					<dim>96</dim>
					<dim>50</dim>
					<dim>62</dim>
				</port>
			</output>
		</layer>
		<layer id="184" name="Reshape_1295" type="Const" version="opset1">
			<data element_type="f32" shape="1, 96, 1, 1" offset="1682072" size="384" />
			<output>
				<port id="0" precision="FP32">
					<dim>1</dim>
					<dim>96</dim>
					<dim>1</dim>
					<dim>1</dim>
				</port>
			</output>
		</layer>
		<layer id="185" name="/backbone/stage4/unit6/conv3/conv/Conv" type="Add" version="opset1">
			<data auto_broadcast="numpy" />
			<input>
				<port id="0" precision="FP32">
					<dim>1</dim>
					<dim>96</dim>
					<dim>50</dim>
					<dim>62</dim>
				</port>
				<port id="1" precision="FP32">
					<dim>1</dim>
					<dim>96</dim>
					<dim>1</dim>
					<dim>1</dim>
				</port>
			</input>
			<output>
				<port id="2" precision="FP32" names="/backbone/stage4/unit6/conv3/conv/Conv_output_0">
					<dim>1</dim>
					<dim>96</dim>
					<dim>50</dim>
					<dim>62</dim>
				</port>
			</output>
		</layer>
		<layer id="186" name="/backbone/stage4/unit6/Add" type="Add" version="opset1">
			<data auto_broadcast="numpy" />
			<input>
				<port id="0" precision="FP32">
					<dim>1</dim>
					<dim>96</dim>
					<dim>50</dim>
					<dim>62</dim>
				</port>
				<port id="1" precision="FP32">
					<dim>1</dim>
					<dim>96</dim>
					<dim>50</dim>
					<dim>62</dim>
				</port>
			</input>
			<output>
				<port id="2" precision="FP32" names="/backbone/stage4/unit6/Add_output_0">
					<dim>1</dim>
					<dim>96</dim>
					<dim>50</dim>
					<dim>62</dim>
				</port>
			</output>
		</layer>
		<layer id="187" name="onnx::Conv_2600" type="Const" version="opset1">
			<data element_type="f32" shape="576, 96, 1, 1" offset="1682456" size="221184" />
			<output>
				<port id="0" precision="FP32" names="onnx::Conv_2600">
					<dim>576</dim>
					<dim>96</dim>
					<dim>1</dim>
					<dim>1</dim>
				</port>
			</output>
		</layer>
		<layer id="188" name="/backbone/stage4/unit7/conv1/conv/Conv/WithoutBiases" type="Convolution" version="opset1">
			<data strides="1, 1" dilations="1, 1" pads_begin="0, 0" pads_end="0, 0" auto_pad="explicit" />
			<input>
				<port id="0" precision="FP32">
					<dim>1</dim>
					<dim>96</dim>
					<dim>50</dim>
					<dim>62</dim>
				</port>
				<port id="1" precision="FP32">
					<dim>576</dim>
					<dim>96</dim>
					<dim>1</dim>
					<dim>1</dim>
				</port>
			</input>
			<output>
				<port id="2" precision="FP32">
					<dim>1</dim>
					<dim>576</dim>
					<dim>50</dim>
					<dim>62</dim>
				</port>
			</output>
		</layer>
		<layer id="189" name="Reshape_1309" type="Const" version="opset1">
			<data element_type="f32" shape="1, 576, 1, 1" offset="1903640" size="2304" />
			<output>
				<port id="0" precision="FP32">
					<dim>1</dim>
					<dim>576</dim>
					<dim>1</dim>
					<dim>1</dim>
				</port>
			</output>
		</layer>
		<layer id="190" name="/backbone/stage4/unit7/conv1/conv/Conv" type="Add" version="opset1">
			<data auto_broadcast="numpy" />
			<input>
				<port id="0" precision="FP32">
					<dim>1</dim>
					<dim>576</dim>
					<dim>50</dim>
					<dim>62</dim>
				</port>
				<port id="1" precision="FP32">
					<dim>1</dim>
					<dim>576</dim>
					<dim>1</dim>
					<dim>1</dim>
				</port>
			</input>
			<output>
				<port id="2" precision="FP32" names="/backbone/stage4/unit7/conv1/conv/Conv_output_0">
					<dim>1</dim>
					<dim>576</dim>
					<dim>50</dim>
					<dim>62</dim>
				</port>
			</output>
		</layer>
		<layer id="191" name="/backbone/stage4/unit7/conv1/activ/Clip" type="Clamp" version="opset1">
			<data min="0" max="6" />
			<input>
				<port id="0" precision="FP32">
					<dim>1</dim>
					<dim>576</dim>
					<dim>50</dim>
					<dim>62</dim>
				</port>
			</input>
			<output>
				<port id="1" precision="FP32" names="/backbone/stage4/unit7/conv1/activ/Clip_output_0">
					<dim>1</dim>
					<dim>576</dim>
					<dim>50</dim>
					<dim>62</dim>
				</port>
			</output>
		</layer>
		<layer id="192" name="Reshape_1322" type="Const" version="opset1">
			<data element_type="f32" shape="576, 1, 1, 3, 3" offset="1905944" size="20736" />
			<output>
				<port id="0" precision="FP32">
					<dim>576</dim>
					<dim>1</dim>
					<dim>1</dim>
					<dim>3</dim>
					<dim>3</dim>
				</port>
			</output>
		</layer>
		<layer id="193" name="/backbone/stage4/unit7/conv2/conv/Conv/WithoutBiases" type="GroupConvolution" version="opset1">
			<data strides="1, 1" pads_begin="1, 1" pads_end="1, 1" dilations="1, 1" auto_pad="explicit" />
			<input>
				<port id="0" precision="FP32">
					<dim>1</dim>
					<dim>576</dim>
					<dim>50</dim>
					<dim>62</dim>
				</port>
				<port id="1" precision="FP32">
					<dim>576</dim>
					<dim>1</dim>
					<dim>1</dim>
					<dim>3</dim>
					<dim>3</dim>
				</port>
			</input>
			<output>
				<port id="2" precision="FP32">
					<dim>1</dim>
					<dim>576</dim>
					<dim>50</dim>
					<dim>62</dim>
				</port>
			</output>
		</layer>
		<layer id="194" name="Reshape_1372" type="Const" version="opset1">
			<data element_type="f32" shape="1, 576, 1, 1" offset="1926680" size="2304" />
			<output>
				<port id="0" precision="FP32">
					<dim>1</dim>
					<dim>576</dim>
					<dim>1</dim>
					<dim>1</dim>
				</port>
			</output>
		</layer>
		<layer id="195" name="/backbone/stage4/unit7/conv2/conv/Conv" type="Add" version="opset1">
			<data auto_broadcast="numpy" />
			<input>
				<port id="0" precision="FP32">
					<dim>1</dim>
					<dim>576</dim>
					<dim>50</dim>
					<dim>62</dim>
				</port>
				<port id="1" precision="FP32">
					<dim>1</dim>
					<dim>576</dim>
					<dim>1</dim>
					<dim>1</dim>
				</port>
			</input>
			<output>
				<port id="2" precision="FP32" names="/backbone/stage4/unit7/conv2/conv/Conv_output_0">
					<dim>1</dim>
					<dim>576</dim>
					<dim>50</dim>
					<dim>62</dim>
				</port>
			</output>
		</layer>
		<layer id="196" name="/backbone/stage4/unit7/conv2/activ/Clip" type="Clamp" version="opset1">
			<data min="0" max="6" />
			<input>
				<port id="0" precision="FP32">
					<dim>1</dim>
					<dim>576</dim>
					<dim>50</dim>
					<dim>62</dim>
				</port>
			</input>
			<output>
				<port id="1" precision="FP32" names="/backbone/stage4/unit7/conv2/activ/Clip_output_0">
					<dim>1</dim>
					<dim>576</dim>
					<dim>50</dim>
					<dim>62</dim>
				</port>
			</output>
		</layer>
		<layer id="197" name="onnx::Conv_2606" type="Const" version="opset1">
			<data element_type="f32" shape="96, 576, 1, 1" offset="1928984" size="221184" />
			<output>
				<port id="0" precision="FP32" names="onnx::Conv_2606">
					<dim>96</dim>
					<dim>576</dim>
					<dim>1</dim>
					<dim>1</dim>
				</port>
			</output>
		</layer>
		<layer id="198" name="/backbone/stage4/unit7/conv3/conv/Conv/WithoutBiases" type="Convolution" version="opset1">
			<data strides="1, 1" dilations="1, 1" pads_begin="0, 0" pads_end="0, 0" auto_pad="explicit" />
			<input>
				<port id="0" precision="FP32">
					<dim>1</dim>
					<dim>576</dim>
					<dim>50</dim>
					<dim>62</dim>
				</port>
				<port id="1" precision="FP32">
					<dim>96</dim>
					<dim>576</dim>
					<dim>1</dim>
					<dim>1</dim>
				</port>
			</input>
			<output>
				<port id="2" precision="FP32">
					<dim>1</dim>
					<dim>96</dim>
					<dim>50</dim>
					<dim>62</dim>
				</port>
			</output>
		</layer>
		<layer id="199" name="Reshape_1389" type="Const" version="opset1">
			<data element_type="f32" shape="1, 96, 1, 1" offset="2150168" size="384" />
			<output>
				<port id="0" precision="FP32">
					<dim>1</dim>
					<dim>96</dim>
					<dim>1</dim>
					<dim>1</dim>
				</port>
			</output>
		</layer>
		<layer id="200" name="/backbone/stage4/unit7/conv3/conv/Conv" type="Add" version="opset1">
			<data auto_broadcast="numpy" />
			<input>
				<port id="0" precision="FP32">
					<dim>1</dim>
					<dim>96</dim>
					<dim>50</dim>
					<dim>62</dim>
				</port>
				<port id="1" precision="FP32">
					<dim>1</dim>
					<dim>96</dim>
					<dim>1</dim>
					<dim>1</dim>
				</port>
			</input>
			<output>
				<port id="2" precision="FP32" names="/backbone/stage4/unit7/conv3/conv/Conv_output_0">
					<dim>1</dim>
					<dim>96</dim>
					<dim>50</dim>
					<dim>62</dim>
				</port>
			</output>
		</layer>
		<layer id="201" name="/backbone/stage4/unit7/Add" type="Add" version="opset1">
			<data auto_broadcast="numpy" />
			<input>
				<port id="0" precision="FP32">
					<dim>1</dim>
					<dim>96</dim>
					<dim>50</dim>
					<dim>62</dim>
				</port>
				<port id="1" precision="FP32">
					<dim>1</dim>
					<dim>96</dim>
					<dim>50</dim>
					<dim>62</dim>
				</port>
			</input>
			<output>
				<port id="2" precision="FP32" names="/backbone/stage4/unit7/Add_output_0">
					<dim>1</dim>
					<dim>96</dim>
					<dim>50</dim>
					<dim>62</dim>
				</port>
			</output>
		</layer>
		<layer id="202" name="model.neck.lateral_convs.1.conv.weight" type="Const" version="opset1">
			<data element_type="f32" shape="64, 96, 1, 1" offset="2150552" size="24576" />
			<output>
				<port id="0" precision="FP32" names="model.neck.lateral_convs.1.conv.weight">
					<dim>64</dim>
					<dim>96</dim>
					<dim>1</dim>
					<dim>1</dim>
				</port>
			</output>
		</layer>
		<layer id="203" name="/neck/lateral_convs.1/conv/Conv/WithoutBiases" type="Convolution" version="opset1">
			<data strides="1, 1" dilations="1, 1" pads_begin="0, 0" pads_end="0, 0" auto_pad="explicit" />
			<input>
				<port id="0" precision="FP32">
					<dim>1</dim>
					<dim>96</dim>
					<dim>50</dim>
					<dim>62</dim>
				</port>
				<port id="1" precision="FP32">
					<dim>64</dim>
					<dim>96</dim>
					<dim>1</dim>
					<dim>1</dim>
				</port>
			</input>
			<output>
				<port id="2" precision="FP32">
					<dim>1</dim>
					<dim>64</dim>
					<dim>50</dim>
					<dim>62</dim>
				</port>
			</output>
		</layer>
		<layer id="204" name="Reshape_1790" type="Const" version="opset1">
			<data element_type="f32" shape="1, 64, 1, 1" offset="2175128" size="256" />
			<output>
				<port id="0" precision="FP32">
					<dim>1</dim>
					<dim>64</dim>
					<dim>1</dim>
					<dim>1</dim>
				</port>
			</output>
		</layer>
		<layer id="205" name="/neck/lateral_convs.1/conv/Conv" type="Add" version="opset1">
			<data auto_broadcast="numpy" />
			<input>
				<port id="0" precision="FP32">
					<dim>1</dim>
					<dim>64</dim>
					<dim>50</dim>
					<dim>62</dim>
				</port>
				<port id="1" precision="FP32">
					<dim>1</dim>
					<dim>64</dim>
					<dim>1</dim>
					<dim>1</dim>
				</port>
			</input>
			<output>
				<port id="2" precision="FP32" names="/neck/lateral_convs.1/conv/Conv_output_0">
					<dim>1</dim>
					<dim>64</dim>
					<dim>50</dim>
					<dim>62</dim>
				</port>
			</output>
		</layer>
		<layer id="206" name="onnx::Conv_2609" type="Const" version="opset1">
			<data element_type="f32" shape="576, 96, 1, 1" offset="2175384" size="221184" />
			<output>
				<port id="0" precision="FP32" names="onnx::Conv_2609">
					<dim>576</dim>
					<dim>96</dim>
					<dim>1</dim>
					<dim>1</dim>
				</port>
			</output>
		</layer>
		<layer id="207" name="/backbone/stage5/unit1/conv1/conv/Conv/WithoutBiases" type="Convolution" version="opset1">
			<data strides="1, 1" dilations="1, 1" pads_begin="0, 0" pads_end="0, 0" auto_pad="explicit" />
			<input>
				<port id="0" precision="FP32">
					<dim>1</dim>
					<dim>96</dim>
					<dim>50</dim>
					<dim>62</dim>
				</port>
				<port id="1" precision="FP32">
					<dim>576</dim>
					<dim>96</dim>
					<dim>1</dim>
					<dim>1</dim>
				</port>
			</input>
			<output>
				<port id="2" precision="FP32">
					<dim>1</dim>
					<dim>576</dim>
					<dim>50</dim>
					<dim>62</dim>
				</port>
			</output>
		</layer>
		<layer id="208" name="Reshape_1403" type="Const" version="opset1">
			<data element_type="f32" shape="1, 576, 1, 1" offset="2396568" size="2304" />
			<output>
				<port id="0" precision="FP32">
					<dim>1</dim>
					<dim>576</dim>
					<dim>1</dim>
					<dim>1</dim>
				</port>
			</output>
		</layer>
		<layer id="209" name="/backbone/stage5/unit1/conv1/conv/Conv" type="Add" version="opset1">
			<data auto_broadcast="numpy" />
			<input>
				<port id="0" precision="FP32">
					<dim>1</dim>
					<dim>576</dim>
					<dim>50</dim>
					<dim>62</dim>
				</port>
				<port id="1" precision="FP32">
					<dim>1</dim>
					<dim>576</dim>
					<dim>1</dim>
					<dim>1</dim>
				</port>
			</input>
			<output>
				<port id="2" precision="FP32" names="/backbone/stage5/unit1/conv1/conv/Conv_output_0">
					<dim>1</dim>
					<dim>576</dim>
					<dim>50</dim>
					<dim>62</dim>
				</port>
			</output>
		</layer>
		<layer id="210" name="/backbone/stage5/unit1/conv1/activ/Clip" type="Clamp" version="opset1">
			<data min="0" max="6" />
			<input>
				<port id="0" precision="FP32">
					<dim>1</dim>
					<dim>576</dim>
					<dim>50</dim>
					<dim>62</dim>
				</port>
			</input>
			<output>
				<port id="1" precision="FP32" names="/backbone/stage5/unit1/conv1/activ/Clip_output_0">
					<dim>1</dim>
					<dim>576</dim>
					<dim>50</dim>
					<dim>62</dim>
				</port>
			</output>
		</layer>
		<layer id="211" name="Reshape_1416" type="Const" version="opset1">
			<data element_type="f32" shape="576, 1, 1, 3, 3" offset="2398872" size="20736" />
			<output>
				<port id="0" precision="FP32">
					<dim>576</dim>
					<dim>1</dim>
					<dim>1</dim>
					<dim>3</dim>
					<dim>3</dim>
				</port>
			</output>
		</layer>
		<layer id="212" name="/backbone/stage5/unit1/conv2/conv/Conv/WithoutBiases" type="GroupConvolution" version="opset1">
			<data strides="2, 2" pads_begin="1, 1" pads_end="1, 1" dilations="1, 1" auto_pad="explicit" />
			<input>
				<port id="0" precision="FP32">
					<dim>1</dim>
					<dim>576</dim>
					<dim>50</dim>
					<dim>62</dim>
				</port>
				<port id="1" precision="FP32">
					<dim>576</dim>
					<dim>1</dim>
					<dim>1</dim>
					<dim>3</dim>
					<dim>3</dim>
				</port>
			</input>
			<output>
				<port id="2" precision="FP32">
					<dim>1</dim>
					<dim>576</dim>
					<dim>25</dim>
					<dim>31</dim>
				</port>
			</output>
		</layer>
		<layer id="213" name="Reshape_1466" type="Const" version="opset1">
			<data element_type="f32" shape="1, 576, 1, 1" offset="2419608" size="2304" />
			<output>
				<port id="0" precision="FP32">
					<dim>1</dim>
					<dim>576</dim>
					<dim>1</dim>
					<dim>1</dim>
				</port>
			</output>
		</layer>
		<layer id="214" name="/backbone/stage5/unit1/conv2/conv/Conv" type="Add" version="opset1">
			<data auto_broadcast="numpy" />
			<input>
				<port id="0" precision="FP32">
					<dim>1</dim>
					<dim>576</dim>
					<dim>25</dim>
					<dim>31</dim>
				</port>
				<port id="1" precision="FP32">
					<dim>1</dim>
					<dim>576</dim>
					<dim>1</dim>
					<dim>1</dim>
				</port>
			</input>
			<output>
				<port id="2" precision="FP32" names="/backbone/stage5/unit1/conv2/conv/Conv_output_0">
					<dim>1</dim>
					<dim>576</dim>
					<dim>25</dim>
					<dim>31</dim>
				</port>
			</output>
		</layer>
		<layer id="215" name="/backbone/stage5/unit1/conv2/activ/Clip" type="Clamp" version="opset1">
			<data min="0" max="6" />
			<input>
				<port id="0" precision="FP32">
					<dim>1</dim>
					<dim>576</dim>
					<dim>25</dim>
					<dim>31</dim>
				</port>
			</input>
			<output>
				<port id="1" precision="FP32" names="/backbone/stage5/unit1/conv2/activ/Clip_output_0">
					<dim>1</dim>
					<dim>576</dim>
					<dim>25</dim>
					<dim>31</dim>
				</port>
			</output>
		</layer>
		<layer id="216" name="onnx::Conv_2615" type="Const" version="opset1">
			<data element_type="f32" shape="160, 576, 1, 1" offset="2421912" size="368640" />
			<output>
				<port id="0" precision="FP32" names="onnx::Conv_2615">
					<dim>160</dim>
					<dim>576</dim>
					<dim>1</dim>
					<dim>1</dim>
				</port>
			</output>
		</layer>
		<layer id="217" name="/backbone/stage5/unit1/conv3/conv/Conv/WithoutBiases" type="Convolution" version="opset1">
			<data strides="1, 1" dilations="1, 1" pads_begin="0, 0" pads_end="0, 0" auto_pad="explicit" />
			<input>
				<port id="0" precision="FP32">
					<dim>1</dim>
					<dim>576</dim>
					<dim>25</dim>
					<dim>31</dim>
				</port>
				<port id="1" precision="FP32">
					<dim>160</dim>
					<dim>576</dim>
					<dim>1</dim>
					<dim>1</dim>
				</port>
			</input>
			<output>
				<port id="2" precision="FP32">
					<dim>1</dim>
					<dim>160</dim>
					<dim>25</dim>
					<dim>31</dim>
				</port>
			</output>
		</layer>
		<layer id="218" name="Reshape_1483" type="Const" version="opset1">
			<data element_type="f32" shape="1, 160, 1, 1" offset="2790552" size="640" />
			<output>
				<port id="0" precision="FP32">
					<dim>1</dim>
					<dim>160</dim>
					<dim>1</dim>
					<dim>1</dim>
				</port>
			</output>
		</layer>
		<layer id="219" name="/backbone/stage5/unit1/conv3/conv/Conv" type="Add" version="opset1">
			<data auto_broadcast="numpy" />
			<input>
				<port id="0" precision="FP32">
					<dim>1</dim>
					<dim>160</dim>
					<dim>25</dim>
					<dim>31</dim>
				</port>
				<port id="1" precision="FP32">
					<dim>1</dim>
					<dim>160</dim>
					<dim>1</dim>
					<dim>1</dim>
				</port>
			</input>
			<output>
				<port id="2" precision="FP32" names="/backbone/stage5/unit1/conv3/conv/Conv_output_0">
					<dim>1</dim>
					<dim>160</dim>
					<dim>25</dim>
					<dim>31</dim>
				</port>
			</output>
		</layer>
		<layer id="220" name="onnx::Conv_2618" type="Const" version="opset1">
			<data element_type="f32" shape="960, 160, 1, 1" offset="2791192" size="614400" />
			<output>
				<port id="0" precision="FP32" names="onnx::Conv_2618">
					<dim>960</dim>
					<dim>160</dim>
					<dim>1</dim>
					<dim>1</dim>
				</port>
			</output>
		</layer>
		<layer id="221" name="/backbone/stage5/unit2/conv1/conv/Conv/WithoutBiases" type="Convolution" version="opset1">
			<data strides="1, 1" dilations="1, 1" pads_begin="0, 0" pads_end="0, 0" auto_pad="explicit" />
			<input>
				<port id="0" precision="FP32">
					<dim>1</dim>
					<dim>160</dim>
					<dim>25</dim>
					<dim>31</dim>
				</port>
				<port id="1" precision="FP32">
					<dim>960</dim>
					<dim>160</dim>
					<dim>1</dim>
					<dim>1</dim>
				</port>
			</input>
			<output>
				<port id="2" precision="FP32">
					<dim>1</dim>
					<dim>960</dim>
					<dim>25</dim>
					<dim>31</dim>
				</port>
			</output>
		</layer>
		<layer id="222" name="Reshape_1496" type="Const" version="opset1">
			<data element_type="f32" shape="1, 960, 1, 1" offset="3405592" size="3840" />
			<output>
				<port id="0" precision="FP32">
					<dim>1</dim>
					<dim>960</dim>
					<dim>1</dim>
					<dim>1</dim>
				</port>
			</output>
		</layer>
		<layer id="223" name="/backbone/stage5/unit2/conv1/conv/Conv" type="Add" version="opset1">
			<data auto_broadcast="numpy" />
			<input>
				<port id="0" precision="FP32">
					<dim>1</dim>
					<dim>960</dim>
					<dim>25</dim>
					<dim>31</dim>
				</port>
				<port id="1" precision="FP32">
					<dim>1</dim>
					<dim>960</dim>
					<dim>1</dim>
					<dim>1</dim>
				</port>
			</input>
			<output>
				<port id="2" precision="FP32" names="/backbone/stage5/unit2/conv1/conv/Conv_output_0">
					<dim>1</dim>
					<dim>960</dim>
					<dim>25</dim>
					<dim>31</dim>
				</port>
			</output>
		</layer>
		<layer id="224" name="/backbone/stage5/unit2/conv1/activ/Clip" type="Clamp" version="opset1">
			<data min="0" max="6" />
			<input>
				<port id="0" precision="FP32">
					<dim>1</dim>
					<dim>960</dim>
					<dim>25</dim>
					<dim>31</dim>
				</port>
			</input>
			<output>
				<port id="1" precision="FP32" names="/backbone/stage5/unit2/conv1/activ/Clip_output_0">
					<dim>1</dim>
					<dim>960</dim>
					<dim>25</dim>
					<dim>31</dim>
				</port>
			</output>
		</layer>
		<layer id="225" name="Reshape_1509" type="Const" version="opset1">
			<data element_type="f32" shape="960, 1, 1, 3, 3" offset="3409432" size="34560" />
			<output>
				<port id="0" precision="FP32">
					<dim>960</dim>
					<dim>1</dim>
					<dim>1</dim>
					<dim>3</dim>
					<dim>3</dim>
				</port>
			</output>
		</layer>
		<layer id="226" name="/backbone/stage5/unit2/conv2/conv/Conv/WithoutBiases" type="GroupConvolution" version="opset1">
			<data strides="1, 1" pads_begin="1, 1" pads_end="1, 1" dilations="1, 1" auto_pad="explicit" />
			<input>
				<port id="0" precision="FP32">
					<dim>1</dim>
					<dim>960</dim>
					<dim>25</dim>
					<dim>31</dim>
				</port>
				<port id="1" precision="FP32">
					<dim>960</dim>
					<dim>1</dim>
					<dim>1</dim>
					<dim>3</dim>
					<dim>3</dim>
				</port>
			</input>
			<output>
				<port id="2" precision="FP32">
					<dim>1</dim>
					<dim>960</dim>
					<dim>25</dim>
					<dim>31</dim>
				</port>
			</output>
		</layer>
		<layer id="227" name="Reshape_1559" type="Const" version="opset1">
			<data element_type="f32" shape="1, 960, 1, 1" offset="3443992" size="3840" />
			<output>
				<port id="0" precision="FP32">
					<dim>1</dim>
					<dim>960</dim>
					<dim>1</dim>
					<dim>1</dim>
				</port>
			</output>
		</layer>
		<layer id="228" name="/backbone/stage5/unit2/conv2/conv/Conv" type="Add" version="opset1">
			<data auto_broadcast="numpy" />
			<input>
				<port id="0" precision="FP32">
					<dim>1</dim>
					<dim>960</dim>
					<dim>25</dim>
					<dim>31</dim>
				</port>
				<port id="1" precision="FP32">
					<dim>1</dim>
					<dim>960</dim>
					<dim>1</dim>
					<dim>1</dim>
				</port>
			</input>
			<output>
				<port id="2" precision="FP32" names="/backbone/stage5/unit2/conv2/conv/Conv_output_0">
					<dim>1</dim>
					<dim>960</dim>
					<dim>25</dim>
					<dim>31</dim>
				</port>
			</output>
		</layer>
		<layer id="229" name="/backbone/stage5/unit2/conv2/activ/Clip" type="Clamp" version="opset1">
			<data min="0" max="6" />
			<input>
				<port id="0" precision="FP32">
					<dim>1</dim>
					<dim>960</dim>
					<dim>25</dim>
					<dim>31</dim>
				</port>
			</input>
			<output>
				<port id="1" precision="FP32" names="/backbone/stage5/unit2/conv2/activ/Clip_output_0">
					<dim>1</dim>
					<dim>960</dim>
					<dim>25</dim>
					<dim>31</dim>
				</port>
			</output>
		</layer>
		<layer id="230" name="onnx::Conv_2624" type="Const" version="opset1">
			<data element_type="f32" shape="160, 960, 1, 1" offset="3447832" size="614400" />
			<output>
				<port id="0" precision="FP32" names="onnx::Conv_2624">
					<dim>160</dim>
					<dim>960</dim>
					<dim>1</dim>
					<dim>1</dim>
				</port>
			</output>
		</layer>
		<layer id="231" name="/backbone/stage5/unit2/conv3/conv/Conv/WithoutBiases" type="Convolution" version="opset1">
			<data strides="1, 1" dilations="1, 1" pads_begin="0, 0" pads_end="0, 0" auto_pad="explicit" />
			<input>
				<port id="0" precision="FP32">
					<dim>1</dim>
					<dim>960</dim>
					<dim>25</dim>
					<dim>31</dim>
				</port>
				<port id="1" precision="FP32">
					<dim>160</dim>
					<dim>960</dim>
					<dim>1</dim>
					<dim>1</dim>
				</port>
			</input>
			<output>
				<port id="2" precision="FP32">
					<dim>1</dim>
					<dim>160</dim>
					<dim>25</dim>
					<dim>31</dim>
				</port>
			</output>
		</layer>
		<layer id="232" name="Reshape_1576" type="Const" version="opset1">
			<data element_type="f32" shape="1, 160, 1, 1" offset="4062232" size="640" />
			<output>
				<port id="0" precision="FP32">
					<dim>1</dim>
					<dim>160</dim>
					<dim>1</dim>
					<dim>1</dim>
				</port>
			</output>
		</layer>
		<layer id="233" name="/backbone/stage5/unit2/conv3/conv/Conv" type="Add" version="opset1">
			<data auto_broadcast="numpy" />
			<input>
				<port id="0" precision="FP32">
					<dim>1</dim>
					<dim>160</dim>
					<dim>25</dim>
					<dim>31</dim>
				</port>
				<port id="1" precision="FP32">
					<dim>1</dim>
					<dim>160</dim>
					<dim>1</dim>
					<dim>1</dim>
				</port>
			</input>
			<output>
				<port id="2" precision="FP32" names="/backbone/stage5/unit2/conv3/conv/Conv_output_0">
					<dim>1</dim>
					<dim>160</dim>
					<dim>25</dim>
					<dim>31</dim>
				</port>
			</output>
		</layer>
		<layer id="234" name="/backbone/stage5/unit2/Add" type="Add" version="opset1">
			<data auto_broadcast="numpy" />
			<input>
				<port id="0" precision="FP32">
					<dim>1</dim>
					<dim>160</dim>
					<dim>25</dim>
					<dim>31</dim>
				</port>
				<port id="1" precision="FP32">
					<dim>1</dim>
					<dim>160</dim>
					<dim>25</dim>
					<dim>31</dim>
				</port>
			</input>
			<output>
				<port id="2" precision="FP32" names="/backbone/stage5/unit2/Add_output_0">
					<dim>1</dim>
					<dim>160</dim>
					<dim>25</dim>
					<dim>31</dim>
				</port>
			</output>
		</layer>
		<layer id="235" name="onnx::Conv_2627" type="Const" version="opset1">
			<data element_type="f32" shape="960, 160, 1, 1" offset="4062872" size="614400" />
			<output>
				<port id="0" precision="FP32" names="onnx::Conv_2627">
					<dim>960</dim>
					<dim>160</dim>
					<dim>1</dim>
					<dim>1</dim>
				</port>
			</output>
		</layer>
		<layer id="236" name="/backbone/stage5/unit3/conv1/conv/Conv/WithoutBiases" type="Convolution" version="opset1">
			<data strides="1, 1" dilations="1, 1" pads_begin="0, 0" pads_end="0, 0" auto_pad="explicit" />
			<input>
				<port id="0" precision="FP32">
					<dim>1</dim>
					<dim>160</dim>
					<dim>25</dim>
					<dim>31</dim>
				</port>
				<port id="1" precision="FP32">
					<dim>960</dim>
					<dim>160</dim>
					<dim>1</dim>
					<dim>1</dim>
				</port>
			</input>
			<output>
				<port id="2" precision="FP32">
					<dim>1</dim>
					<dim>960</dim>
					<dim>25</dim>
					<dim>31</dim>
				</port>
			</output>
		</layer>
		<layer id="237" name="Reshape_1590" type="Const" version="opset1">
			<data element_type="f32" shape="1, 960, 1, 1" offset="4677272" size="3840" />
			<output>
				<port id="0" precision="FP32">
					<dim>1</dim>
					<dim>960</dim>
					<dim>1</dim>
					<dim>1</dim>
				</port>
			</output>
		</layer>
		<layer id="238" name="/backbone/stage5/unit3/conv1/conv/Conv" type="Add" version="opset1">
			<data auto_broadcast="numpy" />
			<input>
				<port id="0" precision="FP32">
					<dim>1</dim>
					<dim>960</dim>
					<dim>25</dim>
					<dim>31</dim>
				</port>
				<port id="1" precision="FP32">
					<dim>1</dim>
					<dim>960</dim>
					<dim>1</dim>
					<dim>1</dim>
				</port>
			</input>
			<output>
				<port id="2" precision="FP32" names="/backbone/stage5/unit3/conv1/conv/Conv_output_0">
					<dim>1</dim>
					<dim>960</dim>
					<dim>25</dim>
					<dim>31</dim>
				</port>
			</output>
		</layer>
		<layer id="239" name="/backbone/stage5/unit3/conv1/activ/Clip" type="Clamp" version="opset1">
			<data min="0" max="6" />
			<input>
				<port id="0" precision="FP32">
					<dim>1</dim>
					<dim>960</dim>
					<dim>25</dim>
					<dim>31</dim>
				</port>
			</input>
			<output>
				<port id="1" precision="FP32" names="/backbone/stage5/unit3/conv1/activ/Clip_output_0">
					<dim>1</dim>
					<dim>960</dim>
					<dim>25</dim>
					<dim>31</dim>
				</port>
			</output>
		</layer>
		<layer id="240" name="Reshape_1603" type="Const" version="opset1">
			<data element_type="f32" shape="960, 1, 1, 3, 3" offset="4681112" size="34560" />
			<output>
				<port id="0" precision="FP32">
					<dim>960</dim>
					<dim>1</dim>
					<dim>1</dim>
					<dim>3</dim>
					<dim>3</dim>
				</port>
			</output>
		</layer>
		<layer id="241" name="/backbone/stage5/unit3/conv2/conv/Conv/WithoutBiases" type="GroupConvolution" version="opset1">
			<data strides="1, 1" pads_begin="1, 1" pads_end="1, 1" dilations="1, 1" auto_pad="explicit" />
			<input>
				<port id="0" precision="FP32">
					<dim>1</dim>
					<dim>960</dim>
					<dim>25</dim>
					<dim>31</dim>
				</port>
				<port id="1" precision="FP32">
					<dim>960</dim>
					<dim>1</dim>
					<dim>1</dim>
					<dim>3</dim>
					<dim>3</dim>
				</port>
			</input>
			<output>
				<port id="2" precision="FP32">
					<dim>1</dim>
					<dim>960</dim>
					<dim>25</dim>
					<dim>31</dim>
				</port>
			</output>
		</layer>
		<layer id="242" name="Reshape_1653" type="Const" version="opset1">
			<data element_type="f32" shape="1, 960, 1, 1" offset="4715672" size="3840" />
			<output>
				<port id="0" precision="FP32">
					<dim>1</dim>
					<dim>960</dim>
					<dim>1</dim>
					<dim>1</dim>
				</port>
			</output>
		</layer>
		<layer id="243" name="/backbone/stage5/unit3/conv2/conv/Conv" type="Add" version="opset1">
			<data auto_broadcast="numpy" />
			<input>
				<port id="0" precision="FP32">
					<dim>1</dim>
					<dim>960</dim>
					<dim>25</dim>
					<dim>31</dim>
				</port>
				<port id="1" precision="FP32">
					<dim>1</dim>
					<dim>960</dim>
					<dim>1</dim>
					<dim>1</dim>
				</port>
			</input>
			<output>
				<port id="2" precision="FP32" names="/backbone/stage5/unit3/conv2/conv/Conv_output_0">
					<dim>1</dim>
					<dim>960</dim>
					<dim>25</dim>
					<dim>31</dim>
				</port>
			</output>
		</layer>
		<layer id="244" name="/backbone/stage5/unit3/conv2/activ/Clip" type="Clamp" version="opset1">
			<data min="0" max="6" />
			<input>
				<port id="0" precision="FP32">
					<dim>1</dim>
					<dim>960</dim>
					<dim>25</dim>
					<dim>31</dim>
				</port>
			</input>
			<output>
				<port id="1" precision="FP32" names="/backbone/stage5/unit3/conv2/activ/Clip_output_0">
					<dim>1</dim>
					<dim>960</dim>
					<dim>25</dim>
					<dim>31</dim>
				</port>
			</output>
		</layer>
		<layer id="245" name="onnx::Conv_2633" type="Const" version="opset1">
			<data element_type="f32" shape="160, 960, 1, 1" offset="4719512" size="614400" />
			<output>
				<port id="0" precision="FP32" names="onnx::Conv_2633">
					<dim>160</dim>
					<dim>960</dim>
					<dim>1</dim>
					<dim>1</dim>
				</port>
			</output>
		</layer>
		<layer id="246" name="/backbone/stage5/unit3/conv3/conv/Conv/WithoutBiases" type="Convolution" version="opset1">
			<data strides="1, 1" dilations="1, 1" pads_begin="0, 0" pads_end="0, 0" auto_pad="explicit" />
			<input>
				<port id="0" precision="FP32">
					<dim>1</dim>
					<dim>960</dim>
					<dim>25</dim>
					<dim>31</dim>
				</port>
				<port id="1" precision="FP32">
					<dim>160</dim>
					<dim>960</dim>
					<dim>1</dim>
					<dim>1</dim>
				</port>
			</input>
			<output>
				<port id="2" precision="FP32">
					<dim>1</dim>
					<dim>160</dim>
					<dim>25</dim>
					<dim>31</dim>
				</port>
			</output>
		</layer>
		<layer id="247" name="Reshape_1670" type="Const" version="opset1">
			<data element_type="f32" shape="1, 160, 1, 1" offset="5333912" size="640" />
			<output>
				<port id="0" precision="FP32">
					<dim>1</dim>
					<dim>160</dim>
					<dim>1</dim>
					<dim>1</dim>
				</port>
			</output>
		</layer>
		<layer id="248" name="/backbone/stage5/unit3/conv3/conv/Conv" type="Add" version="opset1">
			<data auto_broadcast="numpy" />
			<input>
				<port id="0" precision="FP32">
					<dim>1</dim>
					<dim>160</dim>
					<dim>25</dim>
					<dim>31</dim>
				</port>
				<port id="1" precision="FP32">
					<dim>1</dim>
					<dim>160</dim>
					<dim>1</dim>
					<dim>1</dim>
				</port>
			</input>
			<output>
				<port id="2" precision="FP32" names="/backbone/stage5/unit3/conv3/conv/Conv_output_0">
					<dim>1</dim>
					<dim>160</dim>
					<dim>25</dim>
					<dim>31</dim>
				</port>
			</output>
		</layer>
		<layer id="249" name="/backbone/stage5/unit3/Add" type="Add" version="opset1">
			<data auto_broadcast="numpy" />
			<input>
				<port id="0" precision="FP32">
					<dim>1</dim>
					<dim>160</dim>
					<dim>25</dim>
					<dim>31</dim>
				</port>
				<port id="1" precision="FP32">
					<dim>1</dim>
					<dim>160</dim>
					<dim>25</dim>
					<dim>31</dim>
				</port>
			</input>
			<output>
				<port id="2" precision="FP32" names="/backbone/stage5/unit3/Add_output_0">
					<dim>1</dim>
					<dim>160</dim>
					<dim>25</dim>
					<dim>31</dim>
				</port>
			</output>
		</layer>
		<layer id="250" name="onnx::Conv_2636" type="Const" version="opset1">
			<data element_type="f32" shape="960, 160, 1, 1" offset="5334552" size="614400" />
			<output>
				<port id="0" precision="FP32" names="onnx::Conv_2636">
					<dim>960</dim>
					<dim>160</dim>
					<dim>1</dim>
					<dim>1</dim>
				</port>
			</output>
		</layer>
		<layer id="251" name="/backbone/stage5/unit4/conv1/conv/Conv/WithoutBiases" type="Convolution" version="opset1">
			<data strides="1, 1" dilations="1, 1" pads_begin="0, 0" pads_end="0, 0" auto_pad="explicit" />
			<input>
				<port id="0" precision="FP32">
					<dim>1</dim>
					<dim>160</dim>
					<dim>25</dim>
					<dim>31</dim>
				</port>
				<port id="1" precision="FP32">
					<dim>960</dim>
					<dim>160</dim>
					<dim>1</dim>
					<dim>1</dim>
				</port>
			</input>
			<output>
				<port id="2" precision="FP32">
					<dim>1</dim>
					<dim>960</dim>
					<dim>25</dim>
					<dim>31</dim>
				</port>
			</output>
		</layer>
		<layer id="252" name="Reshape_1684" type="Const" version="opset1">
			<data element_type="f32" shape="1, 960, 1, 1" offset="5948952" size="3840" />
			<output>
				<port id="0" precision="FP32">
					<dim>1</dim>
					<dim>960</dim>
					<dim>1</dim>
					<dim>1</dim>
				</port>
			</output>
		</layer>
		<layer id="253" name="/backbone/stage5/unit4/conv1/conv/Conv" type="Add" version="opset1">
			<data auto_broadcast="numpy" />
			<input>
				<port id="0" precision="FP32">
					<dim>1</dim>
					<dim>960</dim>
					<dim>25</dim>
					<dim>31</dim>
				</port>
				<port id="1" precision="FP32">
					<dim>1</dim>
					<dim>960</dim>
					<dim>1</dim>
					<dim>1</dim>
				</port>
			</input>
			<output>
				<port id="2" precision="FP32" names="/backbone/stage5/unit4/conv1/conv/Conv_output_0">
					<dim>1</dim>
					<dim>960</dim>
					<dim>25</dim>
					<dim>31</dim>
				</port>
			</output>
		</layer>
		<layer id="254" name="/backbone/stage5/unit4/conv1/activ/Clip" type="Clamp" version="opset1">
			<data min="0" max="6" />
			<input>
				<port id="0" precision="FP32">
					<dim>1</dim>
					<dim>960</dim>
					<dim>25</dim>
					<dim>31</dim>
				</port>
			</input>
			<output>
				<port id="1" precision="FP32" names="/backbone/stage5/unit4/conv1/activ/Clip_output_0">
					<dim>1</dim>
					<dim>960</dim>
					<dim>25</dim>
					<dim>31</dim>
				</port>
			</output>
		</layer>
		<layer id="255" name="Reshape_1697" type="Const" version="opset1">
			<data element_type="f32" shape="960, 1, 1, 3, 3" offset="5952792" size="34560" />
			<output>
				<port id="0" precision="FP32">
					<dim>960</dim>
					<dim>1</dim>
					<dim>1</dim>
					<dim>3</dim>
					<dim>3</dim>
				</port>
			</output>
		</layer>
		<layer id="256" name="/backbone/stage5/unit4/conv2/conv/Conv/WithoutBiases" type="GroupConvolution" version="opset1">
			<data strides="1, 1" pads_begin="1, 1" pads_end="1, 1" dilations="1, 1" auto_pad="explicit" />
			<input>
				<port id="0" precision="FP32">
					<dim>1</dim>
					<dim>960</dim>
					<dim>25</dim>
					<dim>31</dim>
				</port>
				<port id="1" precision="FP32">
					<dim>960</dim>
					<dim>1</dim>
					<dim>1</dim>
					<dim>3</dim>
					<dim>3</dim>
				</port>
			</input>
			<output>
				<port id="2" precision="FP32">
					<dim>1</dim>
					<dim>960</dim>
					<dim>25</dim>
					<dim>31</dim>
				</port>
			</output>
		</layer>
		<layer id="257" name="Reshape_1747" type="Const" version="opset1">
			<data element_type="f32" shape="1, 960, 1, 1" offset="5987352" size="3840" />
			<output>
				<port id="0" precision="FP32">
					<dim>1</dim>
					<dim>960</dim>
					<dim>1</dim>
					<dim>1</dim>
				</port>
			</output>
		</layer>
		<layer id="258" name="/backbone/stage5/unit4/conv2/conv/Conv" type="Add" version="opset1">
			<data auto_broadcast="numpy" />
			<input>
				<port id="0" precision="FP32">
					<dim>1</dim>
					<dim>960</dim>
					<dim>25</dim>
					<dim>31</dim>
				</port>
				<port id="1" precision="FP32">
					<dim>1</dim>
					<dim>960</dim>
					<dim>1</dim>
					<dim>1</dim>
				</port>
			</input>
			<output>
				<port id="2" precision="FP32" names="/backbone/stage5/unit4/conv2/conv/Conv_output_0">
					<dim>1</dim>
					<dim>960</dim>
					<dim>25</dim>
					<dim>31</dim>
				</port>
			</output>
		</layer>
		<layer id="259" name="/backbone/stage5/unit4/conv2/activ/Clip" type="Clamp" version="opset1">
			<data min="0" max="6" />
			<input>
				<port id="0" precision="FP32">
					<dim>1</dim>
					<dim>960</dim>
					<dim>25</dim>
					<dim>31</dim>
				</port>
			</input>
			<output>
				<port id="1" precision="FP32" names="/backbone/stage5/unit4/conv2/activ/Clip_output_0">
					<dim>1</dim>
					<dim>960</dim>
					<dim>25</dim>
					<dim>31</dim>
				</port>
			</output>
		</layer>
		<layer id="260" name="onnx::Conv_2642" type="Const" version="opset1">
			<data element_type="f32" shape="320, 960, 1, 1" offset="5991192" size="1228800" />
			<output>
				<port id="0" precision="FP32" names="onnx::Conv_2642">
					<dim>320</dim>
					<dim>960</dim>
					<dim>1</dim>
					<dim>1</dim>
				</port>
			</output>
		</layer>
		<layer id="261" name="/backbone/stage5/unit4/conv3/conv/Conv/WithoutBiases" type="Convolution" version="opset1">
			<data strides="1, 1" dilations="1, 1" pads_begin="0, 0" pads_end="0, 0" auto_pad="explicit" />
			<input>
				<port id="0" precision="FP32">
					<dim>1</dim>
					<dim>960</dim>
					<dim>25</dim>
					<dim>31</dim>
				</port>
				<port id="1" precision="FP32">
					<dim>320</dim>
					<dim>960</dim>
					<dim>1</dim>
					<dim>1</dim>
				</port>
			</input>
			<output>
				<port id="2" precision="FP32">
					<dim>1</dim>
					<dim>320</dim>
					<dim>25</dim>
					<dim>31</dim>
				</port>
			</output>
		</layer>
		<layer id="262" name="Reshape_1764" type="Const" version="opset1">
			<data element_type="f32" shape="1, 320, 1, 1" offset="7219992" size="1280" />
			<output>
				<port id="0" precision="FP32">
					<dim>1</dim>
					<dim>320</dim>
					<dim>1</dim>
					<dim>1</dim>
				</port>
			</output>
		</layer>
		<layer id="263" name="/backbone/stage5/unit4/conv3/conv/Conv" type="Add" version="opset1">
			<data auto_broadcast="numpy" />
			<input>
				<port id="0" precision="FP32">
					<dim>1</dim>
					<dim>320</dim>
					<dim>25</dim>
					<dim>31</dim>
				</port>
				<port id="1" precision="FP32">
					<dim>1</dim>
					<dim>320</dim>
					<dim>1</dim>
					<dim>1</dim>
				</port>
			</input>
			<output>
				<port id="2" precision="FP32" names="/backbone/stage5/unit4/conv3/conv/Conv_output_0">
					<dim>1</dim>
					<dim>320</dim>
					<dim>25</dim>
					<dim>31</dim>
				</port>
			</output>
		</layer>
		<layer id="264" name="model.neck.lateral_convs.2.conv.weight" type="Const" version="opset1">
			<data element_type="f32" shape="64, 320, 1, 1" offset="7221272" size="81920" />
			<output>
				<port id="0" precision="FP32" names="model.neck.lateral_convs.2.conv.weight">
					<dim>64</dim>
					<dim>320</dim>
					<dim>1</dim>
					<dim>1</dim>
				</port>
			</output>
		</layer>
		<layer id="265" name="/neck/lateral_convs.2/conv/Conv/WithoutBiases" type="Convolution" version="opset1">
			<data strides="1, 1" dilations="1, 1" pads_begin="0, 0" pads_end="0, 0" auto_pad="explicit" />
			<input>
				<port id="0" precision="FP32">
					<dim>1</dim>
					<dim>320</dim>
					<dim>25</dim>
					<dim>31</dim>
				</port>
				<port id="1" precision="FP32">
					<dim>64</dim>
					<dim>320</dim>
					<dim>1</dim>
					<dim>1</dim>
				</port>
			</input>
			<output>
				<port id="2" precision="FP32">
					<dim>1</dim>
					<dim>64</dim>
					<dim>25</dim>
					<dim>31</dim>
				</port>
			</output>
		</layer>
		<layer id="266" name="Reshape_1803" type="Const" version="opset1">
			<data element_type="f32" shape="1, 64, 1, 1" offset="7303192" size="256" />
			<output>
				<port id="0" precision="FP32">
					<dim>1</dim>
					<dim>64</dim>
					<dim>1</dim>
					<dim>1</dim>
				</port>
			</output>
		</layer>
		<layer id="267" name="/neck/lateral_convs.2/conv/Conv" type="Add" version="opset1">
			<data auto_broadcast="numpy" />
			<input>
				<port id="0" precision="FP32">
					<dim>1</dim>
					<dim>64</dim>
					<dim>25</dim>
					<dim>31</dim>
				</port>
				<port id="1" precision="FP32">
					<dim>1</dim>
					<dim>64</dim>
					<dim>1</dim>
					<dim>1</dim>
				</port>
			</input>
			<output>
				<port id="2" precision="FP32" names="/neck/lateral_convs.2/conv/Conv_output_0">
					<dim>1</dim>
					<dim>64</dim>
					<dim>25</dim>
					<dim>31</dim>
				</port>
			</output>
		</layer>
		<layer id="268" name="/neck/Shape" type="ShapeOf" version="opset3">
			<data output_type="i64" />
			<input>
				<port id="0" precision="FP32">
					<dim>1</dim>
					<dim>64</dim>
					<dim>50</dim>
					<dim>62</dim>
				</port>
			</input>
			<output>
				<port id="1" precision="I64" names="/neck/Concat_1_output_0,/neck/Shape_1_output_0,/neck/Shape_5_output_0,/neck/Shape_output_0">
					<dim>4</dim>
				</port>
			</output>
		</layer>
		<layer id="269" name="/neck/Resize" type="Interpolate" version="opset11">
			<data mode="nearest" shape_calculation_mode="sizes" coordinate_transformation_mode="asymmetric" nearest_mode="floor" antialias="false" pads_begin="0, 0, 0, 0" pads_end="0, 0, 0, 0" cube_coeff="-0.75" />
			<input>
				<port id="0" precision="FP32">
					<dim>1</dim>
					<dim>64</dim>
					<dim>25</dim>
					<dim>31</dim>
				</port>
				<port id="1" precision="I64">
					<dim>4</dim>
				</port>
			</input>
			<output>
				<port id="2" precision="FP32" names="/neck/Resize_output_0">
					<dim>1</dim>
					<dim>64</dim>
					<dim>50</dim>
					<dim>62</dim>
				</port>
			</output>
		</layer>
		<layer id="270" name="/neck/Add" type="Add" version="opset1">
			<data auto_broadcast="numpy" />
			<input>
				<port id="0" precision="FP32">
					<dim>1</dim>
					<dim>64</dim>
					<dim>50</dim>
					<dim>62</dim>
				</port>
				<port id="1" precision="FP32">
					<dim>1</dim>
					<dim>64</dim>
					<dim>50</dim>
					<dim>62</dim>
				</port>
			</input>
			<output>
				<port id="2" precision="FP32" names="/neck/Add_output_0">
					<dim>1</dim>
					<dim>64</dim>
					<dim>50</dim>
					<dim>62</dim>
				</port>
			</output>
		</layer>
		<layer id="271" name="/neck/Shape_3" type="ShapeOf" version="opset3">
			<data output_type="i64" />
			<input>
				<port id="0" precision="FP32">
					<dim>1</dim>
					<dim>64</dim>
					<dim>100</dim>
					<dim>124</dim>
				</port>
			</input>
			<output>
				<port id="1" precision="I64" names="/neck/Concat_3_output_0,/neck/Shape_3_output_0,/neck/Shape_4_output_0">
					<dim>4</dim>
				</port>
			</output>
		</layer>
		<layer id="272" name="/neck/Resize_1" type="Interpolate" version="opset11">
			<data mode="nearest" shape_calculation_mode="sizes" coordinate_transformation_mode="asymmetric" nearest_mode="floor" antialias="false" pads_begin="0, 0, 0, 0" pads_end="0, 0, 0, 0" cube_coeff="-0.75" />
			<input>
				<port id="0" precision="FP32">
					<dim>1</dim>
					<dim>64</dim>
					<dim>50</dim>
					<dim>62</dim>
				</port>
				<port id="1" precision="I64">
					<dim>4</dim>
				</port>
			</input>
			<output>
				<port id="2" precision="FP32" names="/neck/Resize_1_output_0">
					<dim>1</dim>
					<dim>64</dim>
					<dim>100</dim>
					<dim>124</dim>
				</port>
			</output>
		</layer>
		<layer id="273" name="/neck/Add_1" type="Add" version="opset1">
			<data auto_broadcast="numpy" />
			<input>
				<port id="0" precision="FP32">
					<dim>1</dim>
					<dim>64</dim>
					<dim>100</dim>
					<dim>124</dim>
				</port>
				<port id="1" precision="FP32">
					<dim>1</dim>
					<dim>64</dim>
					<dim>100</dim>
					<dim>124</dim>
				</port>
			</input>
			<output>
				<port id="2" precision="FP32" names="/neck/Add_1_output_0">
					<dim>1</dim>
					<dim>64</dim>
					<dim>100</dim>
					<dim>124</dim>
				</port>
			</output>
		</layer>
		<layer id="274" name="model.neck.fpn_convs.0.conv.weight" type="Const" version="opset1">
			<data element_type="f32" shape="64, 64, 3, 3" offset="7303448" size="147456" />
			<output>
				<port id="0" precision="FP32" names="model.neck.fpn_convs.0.conv.weight">
					<dim>64</dim>
					<dim>64</dim>
					<dim>3</dim>
					<dim>3</dim>
				</port>
			</output>
		</layer>
		<layer id="275" name="/neck/fpn_convs.0/conv/Conv/WithoutBiases" type="Convolution" version="opset1">
			<data strides="1, 1" dilations="1, 1" pads_begin="1, 1" pads_end="1, 1" auto_pad="explicit" />
			<input>
				<port id="0" precision="FP32">
					<dim>1</dim>
					<dim>64</dim>
					<dim>100</dim>
					<dim>124</dim>
				</port>
				<port id="1" precision="FP32">
					<dim>64</dim>
					<dim>64</dim>
					<dim>3</dim>
					<dim>3</dim>
				</port>
			</input>
			<output>
				<port id="2" precision="FP32">
					<dim>1</dim>
					<dim>64</dim>
					<dim>100</dim>
					<dim>124</dim>
				</port>
			</output>
		</layer>
		<layer id="276" name="Reshape_1889" type="Const" version="opset1">
			<data element_type="f32" shape="1, 64, 1, 1" offset="7450904" size="256" />
			<output>
				<port id="0" precision="FP32">
					<dim>1</dim>
					<dim>64</dim>
					<dim>1</dim>
					<dim>1</dim>
				</port>
			</output>
		</layer>
		<layer id="277" name="/neck/fpn_convs.0/conv/Conv" type="Add" version="opset1">
			<data auto_broadcast="numpy" />
			<input>
				<port id="0" precision="FP32">
					<dim>1</dim>
					<dim>64</dim>
					<dim>100</dim>
					<dim>124</dim>
				</port>
				<port id="1" precision="FP32">
					<dim>1</dim>
					<dim>64</dim>
					<dim>1</dim>
					<dim>1</dim>
				</port>
			</input>
			<output>
				<port id="2" precision="FP32" names="/neck/fpn_convs.0/conv/Conv_output_0">
					<dim>1</dim>
					<dim>64</dim>
					<dim>100</dim>
					<dim>124</dim>
				</port>
			</output>
		</layer>
		<layer id="278" name="model.bbox_head.cls_convs.0.conv.weight" type="Const" version="opset1">
			<data element_type="f32" shape="64, 64, 3, 3" offset="7451160" size="147456" />
			<output>
				<port id="0" precision="FP32" names="model.bbox_head.cls_convs.0.conv.weight">
					<dim>64</dim>
					<dim>64</dim>
					<dim>3</dim>
					<dim>3</dim>
				</port>
			</output>
		</layer>
		<layer id="279" name="/bbox_head/cls_convs.0/conv/Conv" type="Convolution" version="opset1">
			<data strides="1, 1" dilations="1, 1" pads_begin="1, 1" pads_end="1, 1" auto_pad="explicit" />
			<input>
				<port id="0" precision="FP32">
					<dim>1</dim>
					<dim>64</dim>
					<dim>100</dim>
					<dim>124</dim>
				</port>
				<port id="1" precision="FP32">
					<dim>64</dim>
					<dim>64</dim>
					<dim>3</dim>
					<dim>3</dim>
				</port>
			</input>
			<output>
				<port id="2" precision="FP32" names="/bbox_head/cls_convs.0/conv/Conv_output_0">
					<dim>1</dim>
					<dim>64</dim>
					<dim>100</dim>
					<dim>124</dim>
				</port>
			</output>
		</layer>
		<layer id="280" name="/bbox_head/cls_convs.0/gn/Constant" type="Const" version="opset1">
			<data element_type="i64" shape="3" offset="7598616" size="24" />
			<output>
				<port id="0" precision="I64" names="/bbox_head/cls_convs.0/gn/Constant_output_0">
					<dim>3</dim>
				</port>
			</output>
		</layer>
		<layer id="281" name="/bbox_head/cls_convs.0/gn/Reshape" type="Reshape" version="opset1">
			<data special_zero="true" />
			<input>
				<port id="0" precision="FP32">
					<dim>1</dim>
					<dim>64</dim>
					<dim>100</dim>
					<dim>124</dim>
				</port>
				<port id="1" precision="I64">
					<dim>3</dim>
				</port>
			</input>
			<output>
				<port id="2" precision="FP32" names="/bbox_head/cls_convs.0/gn/Reshape_output_0">
					<dim>1</dim>
					<dim>32</dim>
					<dim>24800</dim>
				</port>
			</output>
		</layer>
		<layer id="282" name="Constant_1950" type="Const" version="opset1">
			<data element_type="i64" shape="1" offset="7598640" size="8" />
			<output>
				<port id="0" precision="I64">
					<dim>1</dim>
				</port>
			</output>
		</layer>
		<layer id="283" name="MVN_1951" type="MVN" version="opset6">
			<data eps="9.9999997473787516e-06" normalize_variance="true" eps_mode="INSIDE_SQRT" />
			<input>
				<port id="0" precision="FP32">
					<dim>1</dim>
					<dim>32</dim>
					<dim>24800</dim>
				</port>
				<port id="1" precision="I64">
					<dim>1</dim>
				</port>
			</input>
			<output>
				<port id="2" precision="FP32" names="/bbox_head/cls_convs.0/gn/InstanceNormalization_output_0">
					<dim>1</dim>
					<dim>32</dim>
					<dim>24800</dim>
				</port>
			</output>
		</layer>
		<layer id="284" name="/bbox_head/cls_convs.0/gn/Shape" type="ShapeOf" version="opset3">
			<data output_type="i64" />
			<input>
				<port id="0" precision="FP32">
					<dim>1</dim>
					<dim>64</dim>
					<dim>100</dim>
					<dim>124</dim>
				</port>
			</input>
			<output>
				<port id="1" precision="I64" names="/bbox_head/cls_convs.0/gn/Shape_output_0">
					<dim>4</dim>
				</port>
			</output>
		</layer>
		<layer id="285" name="/bbox_head/cls_convs.0/gn/Reshape_1" type="Reshape" version="opset1">
			<data special_zero="true" />
			<input>
				<port id="0" precision="FP32">
					<dim>1</dim>
					<dim>32</dim>
					<dim>24800</dim>
				</port>
				<port id="1" precision="I64">
					<dim>4</dim>
				</port>
			</input>
			<output>
				<port id="2" precision="FP32" names="/bbox_head/cls_convs.0/gn/Reshape_1_output_0">
					<dim>1</dim>
					<dim>64</dim>
					<dim>100</dim>
					<dim>124</dim>
				</port>
			</output>
		</layer>
		<layer id="286" name="Constant_21950" type="Const" version="opset1">
			<data element_type="f32" shape="1, 64, 1, 1" offset="7598648" size="256" />
			<output>
				<port id="0" precision="FP32">
					<dim>1</dim>
					<dim>64</dim>
					<dim>1</dim>
					<dim>1</dim>
				</port>
			</output>
		</layer>
		<layer id="287" name="/bbox_head/cls_convs.0/gn/Mul" type="Multiply" version="opset1">
			<data auto_broadcast="numpy" />
			<input>
				<port id="0" precision="FP32">
					<dim>1</dim>
					<dim>64</dim>
					<dim>100</dim>
					<dim>124</dim>
				</port>
				<port id="1" precision="FP32">
					<dim>1</dim>
					<dim>64</dim>
					<dim>1</dim>
					<dim>1</dim>
				</port>
			</input>
			<output>
				<port id="2" precision="FP32" names="/bbox_head/cls_convs.0/gn/Mul_output_0">
					<dim>1</dim>
					<dim>64</dim>
					<dim>100</dim>
					<dim>124</dim>
				</port>
			</output>
		</layer>
		<layer id="288" name="Constant_21951" type="Const" version="opset1">
			<data element_type="f32" shape="1, 64, 1, 1" offset="7598904" size="256" />
			<output>
				<port id="0" precision="FP32">
					<dim>1</dim>
					<dim>64</dim>
					<dim>1</dim>
					<dim>1</dim>
				</port>
			</output>
		</layer>
		<layer id="289" name="/bbox_head/cls_convs.0/gn/Add" type="Add" version="opset1">
			<data auto_broadcast="numpy" />
			<input>
				<port id="0" precision="FP32">
					<dim>1</dim>
					<dim>64</dim>
					<dim>100</dim>
					<dim>124</dim>
				</port>
				<port id="1" precision="FP32">
					<dim>1</dim>
					<dim>64</dim>
					<dim>1</dim>
					<dim>1</dim>
				</port>
			</input>
			<output>
				<port id="2" precision="FP32" names="/bbox_head/cls_convs.0/gn/Add_output_0">
					<dim>1</dim>
					<dim>64</dim>
					<dim>100</dim>
					<dim>124</dim>
				</port>
			</output>
		</layer>
		<layer id="290" name="/bbox_head/cls_convs.0/activation/Relu" type="ReLU" version="opset1">
			<input>
				<port id="0" precision="FP32">
					<dim>1</dim>
					<dim>64</dim>
					<dim>100</dim>
					<dim>124</dim>
				</port>
			</input>
			<output>
				<port id="1" precision="FP32" names="/bbox_head/cls_convs.0/activation/Relu_output_0">
					<dim>1</dim>
					<dim>64</dim>
					<dim>100</dim>
					<dim>124</dim>
				</port>
			</output>
		</layer>
		<layer id="291" name="model.bbox_head.cls_convs.1.conv.weight" type="Const" version="opset1">
			<data element_type="f32" shape="64, 64, 3, 3" offset="7599160" size="147456" />
			<output>
				<port id="0" precision="FP32" names="model.bbox_head.cls_convs.1.conv.weight">
					<dim>64</dim>
					<dim>64</dim>
					<dim>3</dim>
					<dim>3</dim>
				</port>
			</output>
		</layer>
		<layer id="292" name="/bbox_head/cls_convs.1/conv/Conv" type="Convolution" version="opset1">
			<data strides="1, 1" dilations="1, 1" pads_begin="1, 1" pads_end="1, 1" auto_pad="explicit" />
			<input>
				<port id="0" precision="FP32">
					<dim>1</dim>
					<dim>64</dim>
					<dim>100</dim>
					<dim>124</dim>
				</port>
				<port id="1" precision="FP32">
					<dim>64</dim>
					<dim>64</dim>
					<dim>3</dim>
					<dim>3</dim>
				</port>
			</input>
			<output>
				<port id="2" precision="FP32" names="/bbox_head/cls_convs.1/conv/Conv_output_0">
					<dim>1</dim>
					<dim>64</dim>
					<dim>100</dim>
					<dim>124</dim>
				</port>
			</output>
		</layer>
		<layer id="293" name="/bbox_head/cls_convs.1/gn/Constant" type="Const" version="opset1">
			<data element_type="i64" shape="3" offset="7598616" size="24" />
			<output>
				<port id="0" precision="I64" names="/bbox_head/cls_convs.1/gn/Constant_output_0">
					<dim>3</dim>
				</port>
			</output>
		</layer>
		<layer id="294" name="/bbox_head/cls_convs.1/gn/Reshape" type="Reshape" version="opset1">
			<data special_zero="true" />
			<input>
				<port id="0" precision="FP32">
					<dim>1</dim>
					<dim>64</dim>
					<dim>100</dim>
					<dim>124</dim>
				</port>
				<port id="1" precision="I64">
					<dim>3</dim>
				</port>
			</input>
			<output>
				<port id="2" precision="FP32" names="/bbox_head/cls_convs.1/gn/Reshape_output_0">
					<dim>1</dim>
					<dim>32</dim>
					<dim>24800</dim>
				</port>
			</output>
		</layer>
		<layer id="295" name="Constant_1985" type="Const" version="opset1">
			<data element_type="i64" shape="1" offset="7598640" size="8" />
			<output>
				<port id="0" precision="I64">
					<dim>1</dim>
				</port>
			</output>
		</layer>
		<layer id="296" name="MVN_1986" type="MVN" version="opset6">
			<data eps="9.9999997473787516e-06" normalize_variance="true" eps_mode="INSIDE_SQRT" />
			<input>
				<port id="0" precision="FP32">
					<dim>1</dim>
					<dim>32</dim>
					<dim>24800</dim>
				</port>
				<port id="1" precision="I64">
					<dim>1</dim>
				</port>
			</input>
			<output>
				<port id="2" precision="FP32" names="/bbox_head/cls_convs.1/gn/InstanceNormalization_output_0">
					<dim>1</dim>
					<dim>32</dim>
					<dim>24800</dim>
				</port>
			</output>
		</layer>
		<layer id="297" name="/bbox_head/cls_convs.1/gn/Shape" type="ShapeOf" version="opset3">
			<data output_type="i64" />
			<input>
				<port id="0" precision="FP32">
					<dim>1</dim>
					<dim>64</dim>
					<dim>100</dim>
					<dim>124</dim>
				</port>
			</input>
			<output>
				<port id="1" precision="I64" names="/bbox_head/cls_convs.1/gn/Shape_output_0">
					<dim>4</dim>
				</port>
			</output>
		</layer>
		<layer id="298" name="/bbox_head/cls_convs.1/gn/Reshape_1" type="Reshape" version="opset1">
			<data special_zero="true" />
			<input>
				<port id="0" precision="FP32">
					<dim>1</dim>
					<dim>32</dim>
					<dim>24800</dim>
				</port>
				<port id="1" precision="I64">
					<dim>4</dim>
				</port>
			</input>
			<output>
				<port id="2" precision="FP32" names="/bbox_head/cls_convs.1/gn/Reshape_1_output_0">
					<dim>1</dim>
					<dim>64</dim>
					<dim>100</dim>
					<dim>124</dim>
				</port>
			</output>
		</layer>
		<layer id="299" name="Constant_21952" type="Const" version="opset1">
			<data element_type="f32" shape="1, 64, 1, 1" offset="7746616" size="256" />
			<output>
				<port id="0" precision="FP32">
					<dim>1</dim>
					<dim>64</dim>
					<dim>1</dim>
					<dim>1</dim>
				</port>
			</output>
		</layer>
		<layer id="300" name="/bbox_head/cls_convs.1/gn/Mul" type="Multiply" version="opset1">
			<data auto_broadcast="numpy" />
			<input>
				<port id="0" precision="FP32">
					<dim>1</dim>
					<dim>64</dim>
					<dim>100</dim>
					<dim>124</dim>
				</port>
				<port id="1" precision="FP32">
					<dim>1</dim>
					<dim>64</dim>
					<dim>1</dim>
					<dim>1</dim>
				</port>
			</input>
			<output>
				<port id="2" precision="FP32" names="/bbox_head/cls_convs.1/gn/Mul_output_0">
					<dim>1</dim>
					<dim>64</dim>
					<dim>100</dim>
					<dim>124</dim>
				</port>
			</output>
		</layer>
		<layer id="301" name="Constant_21953" type="Const" version="opset1">
			<data element_type="f32" shape="1, 64, 1, 1" offset="7746872" size="256" />
			<output>
				<port id="0" precision="FP32">
					<dim>1</dim>
					<dim>64</dim>
					<dim>1</dim>
					<dim>1</dim>
				</port>
			</output>
		</layer>
		<layer id="302" name="/bbox_head/cls_convs.1/gn/Add" type="Add" version="opset1">
			<data auto_broadcast="numpy" />
			<input>
				<port id="0" precision="FP32">
					<dim>1</dim>
					<dim>64</dim>
					<dim>100</dim>
					<dim>124</dim>
				</port>
				<port id="1" precision="FP32">
					<dim>1</dim>
					<dim>64</dim>
					<dim>1</dim>
					<dim>1</dim>
				</port>
			</input>
			<output>
				<port id="2" precision="FP32" names="/bbox_head/cls_convs.1/gn/Add_output_0">
					<dim>1</dim>
					<dim>64</dim>
					<dim>100</dim>
					<dim>124</dim>
				</port>
			</output>
		</layer>
		<layer id="303" name="/bbox_head/cls_convs.1/activation/Relu" type="ReLU" version="opset1">
			<input>
				<port id="0" precision="FP32">
					<dim>1</dim>
					<dim>64</dim>
					<dim>100</dim>
					<dim>124</dim>
				</port>
			</input>
			<output>
				<port id="1" precision="FP32" names="/bbox_head/cls_convs.1/activation/Relu_output_0">
					<dim>1</dim>
					<dim>64</dim>
					<dim>100</dim>
					<dim>124</dim>
				</port>
			</output>
		</layer>
		<layer id="304" name="model.bbox_head.cls_convs.2.conv.weight" type="Const" version="opset1">
			<data element_type="f32" shape="64, 64, 3, 3" offset="7747128" size="147456" />
			<output>
				<port id="0" precision="FP32" names="model.bbox_head.cls_convs.2.conv.weight">
					<dim>64</dim>
					<dim>64</dim>
					<dim>3</dim>
					<dim>3</dim>
				</port>
			</output>
		</layer>
		<layer id="305" name="/bbox_head/cls_convs.2/conv/Conv" type="Convolution" version="opset1">
			<data strides="1, 1" dilations="1, 1" pads_begin="1, 1" pads_end="1, 1" auto_pad="explicit" />
			<input>
				<port id="0" precision="FP32">
					<dim>1</dim>
					<dim>64</dim>
					<dim>100</dim>
					<dim>124</dim>
				</port>
				<port id="1" precision="FP32">
					<dim>64</dim>
					<dim>64</dim>
					<dim>3</dim>
					<dim>3</dim>
				</port>
			</input>
			<output>
				<port id="2" precision="FP32" names="/bbox_head/cls_convs.2/conv/Conv_output_0">
					<dim>1</dim>
					<dim>64</dim>
					<dim>100</dim>
					<dim>124</dim>
				</port>
			</output>
		</layer>
		<layer id="306" name="/bbox_head/cls_convs.2/gn/Constant" type="Const" version="opset1">
			<data element_type="i64" shape="3" offset="7598616" size="24" />
			<output>
				<port id="0" precision="I64" names="/bbox_head/cls_convs.2/gn/Constant_output_0">
					<dim>3</dim>
				</port>
			</output>
		</layer>
		<layer id="307" name="/bbox_head/cls_convs.2/gn/Reshape" type="Reshape" version="opset1">
			<data special_zero="true" />
			<input>
				<port id="0" precision="FP32">
					<dim>1</dim>
					<dim>64</dim>
					<dim>100</dim>
					<dim>124</dim>
				</port>
				<port id="1" precision="I64">
					<dim>3</dim>
				</port>
			</input>
			<output>
				<port id="2" precision="FP32" names="/bbox_head/cls_convs.2/gn/Reshape_output_0">
					<dim>1</dim>
					<dim>32</dim>
					<dim>24800</dim>
				</port>
			</output>
		</layer>
		<layer id="308" name="Constant_2020" type="Const" version="opset1">
			<data element_type="i64" shape="1" offset="7598640" size="8" />
			<output>
				<port id="0" precision="I64">
					<dim>1</dim>
				</port>
			</output>
		</layer>
		<layer id="309" name="MVN_2021" type="MVN" version="opset6">
			<data eps="9.9999997473787516e-06" normalize_variance="true" eps_mode="INSIDE_SQRT" />
			<input>
				<port id="0" precision="FP32">
					<dim>1</dim>
					<dim>32</dim>
					<dim>24800</dim>
				</port>
				<port id="1" precision="I64">
					<dim>1</dim>
				</port>
			</input>
			<output>
				<port id="2" precision="FP32" names="/bbox_head/cls_convs.2/gn/InstanceNormalization_output_0">
					<dim>1</dim>
					<dim>32</dim>
					<dim>24800</dim>
				</port>
			</output>
		</layer>
		<layer id="310" name="/bbox_head/cls_convs.2/gn/Shape" type="ShapeOf" version="opset3">
			<data output_type="i64" />
			<input>
				<port id="0" precision="FP32">
					<dim>1</dim>
					<dim>64</dim>
					<dim>100</dim>
					<dim>124</dim>
				</port>
			</input>
			<output>
				<port id="1" precision="I64" names="/bbox_head/cls_convs.2/gn/Shape_output_0">
					<dim>4</dim>
				</port>
			</output>
		</layer>
		<layer id="311" name="/bbox_head/cls_convs.2/gn/Reshape_1" type="Reshape" version="opset1">
			<data special_zero="true" />
			<input>
				<port id="0" precision="FP32">
					<dim>1</dim>
					<dim>32</dim>
					<dim>24800</dim>
				</port>
				<port id="1" precision="I64">
					<dim>4</dim>
				</port>
			</input>
			<output>
				<port id="2" precision="FP32" names="/bbox_head/cls_convs.2/gn/Reshape_1_output_0">
					<dim>1</dim>
					<dim>64</dim>
					<dim>100</dim>
					<dim>124</dim>
				</port>
			</output>
		</layer>
		<layer id="312" name="Constant_21954" type="Const" version="opset1">
			<data element_type="f32" shape="1, 64, 1, 1" offset="7894584" size="256" />
			<output>
				<port id="0" precision="FP32">
					<dim>1</dim>
					<dim>64</dim>
					<dim>1</dim>
					<dim>1</dim>
				</port>
			</output>
		</layer>
		<layer id="313" name="/bbox_head/cls_convs.2/gn/Mul" type="Multiply" version="opset1">
			<data auto_broadcast="numpy" />
			<input>
				<port id="0" precision="FP32">
					<dim>1</dim>
					<dim>64</dim>
					<dim>100</dim>
					<dim>124</dim>
				</port>
				<port id="1" precision="FP32">
					<dim>1</dim>
					<dim>64</dim>
					<dim>1</dim>
					<dim>1</dim>
				</port>
			</input>
			<output>
				<port id="2" precision="FP32" names="/bbox_head/cls_convs.2/gn/Mul_output_0">
					<dim>1</dim>
					<dim>64</dim>
					<dim>100</dim>
					<dim>124</dim>
				</port>
			</output>
		</layer>
		<layer id="314" name="Constant_21955" type="Const" version="opset1">
			<data element_type="f32" shape="1, 64, 1, 1" offset="7894840" size="256" />
			<output>
				<port id="0" precision="FP32">
					<dim>1</dim>
					<dim>64</dim>
					<dim>1</dim>
					<dim>1</dim>
				</port>
			</output>
		</layer>
		<layer id="315" name="/bbox_head/cls_convs.2/gn/Add" type="Add" version="opset1">
			<data auto_broadcast="numpy" />
			<input>
…
		<edge from-layer="1420" from-port="0" to-layer="1422" to-port="1" />
		<edge from-layer="1421" from-port="0" to-layer="1422" to-port="2" />
		<edge from-layer="1422" from-port="3" to-layer="1423" to-port="1" />
		<edge from-layer="1423" from-port="2" to-layer="1424" to-port="1" />
		<edge from-layer="1424" from-port="2" to-layer="1426" to-port="1" />
		<edge from-layer="1424" from-port="2" to-layer="1429" to-port="0" />
		<edge from-layer="1425" from-port="0" to-layer="1426" to-port="2" />
		<edge from-layer="1426" from-port="3" to-layer="1428" to-port="0" />
		<edge from-layer="1427" from-port="0" to-layer="1428" to-port="1" />
		<edge from-layer="1428" from-port="2" to-layer="1434" to-port="0" />
		<edge from-layer="1429" from-port="1" to-layer="1433" to-port="0" />
		<edge from-layer="1430" from-port="0" to-layer="1432" to-port="1" />
		<edge from-layer="1431" from-port="0" to-layer="1432" to-port="2" />
		<edge from-layer="1432" from-port="3" to-layer="1433" to-port="1" />
		<edge from-layer="1433" from-port="2" to-layer="1434" to-port="1" />
		<edge from-layer="1434" from-port="2" to-layer="1501" to-port="2" />
		<edge from-layer="1435" from-port="0" to-layer="1436" to-port="1" />
		<edge from-layer="1436" from-port="2" to-layer="1438" to-port="0" />
		<edge from-layer="1437" from-port="0" to-layer="1438" to-port="1" />
		<edge from-layer="1438" from-port="2" to-layer="1440" to-port="0" />
		<edge from-layer="1439" from-port="0" to-layer="1440" to-port="1" />
		<edge from-layer="1440" from-port="2" to-layer="1442" to-port="0" />
		<edge from-layer="1441" from-port="0" to-layer="1442" to-port="1" />
		<edge from-layer="1442" from-port="2" to-layer="1452" to-port="0" />
		<edge from-layer="1442" from-port="2" to-layer="1443" to-port="0" />
		<edge from-layer="1443" from-port="1" to-layer="1455" to-port="0" />
		<edge from-layer="1443" from-port="1" to-layer="1465" to-port="0" />
		<edge from-layer="1443" from-port="1" to-layer="1447" to-port="0" />
		<edge from-layer="1444" from-port="0" to-layer="1447" to-port="1" />
		<edge from-layer="1445" from-port="0" to-layer="1447" to-port="2" />
		<edge from-layer="1446" from-port="0" to-layer="1447" to-port="3" />
		<edge from-layer="1447" from-port="4" to-layer="1449" to-port="0" />
		<edge from-layer="1448" from-port="0" to-layer="1449" to-port="1" />
		<edge from-layer="1449" from-port="2" to-layer="1451" to-port="0" />
		<edge from-layer="1450" from-port="0" to-layer="1451" to-port="1" />
		<edge from-layer="1451" from-port="2" to-layer="1452" to-port="1" />
		<edge from-layer="1452" from-port="2" to-layer="1459" to-port="0" />
		<edge from-layer="1453" from-port="0" to-layer="1455" to-port="1" />
		<edge from-layer="1454" from-port="0" to-layer="1455" to-port="2" />
		<edge from-layer="1455" from-port="3" to-layer="1456" to-port="1" />
		<edge from-layer="1456" from-port="2" to-layer="1457" to-port="1" />
		<edge from-layer="1457" from-port="2" to-layer="1459" to-port="1" />
		<edge from-layer="1457" from-port="2" to-layer="1462" to-port="0" />
		<edge from-layer="1458" from-port="0" to-layer="1459" to-port="2" />
		<edge from-layer="1459" from-port="3" to-layer="1461" to-port="0" />
		<edge from-layer="1460" from-port="0" to-layer="1461" to-port="1" />
		<edge from-layer="1461" from-port="2" to-layer="1467" to-port="0" />
		<edge from-layer="1462" from-port="1" to-layer="1466" to-port="0" />
		<edge from-layer="1463" from-port="0" to-layer="1465" to-port="1" />
		<edge from-layer="1464" from-port="0" to-layer="1465" to-port="2" />
		<edge from-layer="1465" from-port="3" to-layer="1466" to-port="1" />
		<edge from-layer="1466" from-port="2" to-layer="1467" to-port="1" />
		<edge from-layer="1467" from-port="2" to-layer="1501" to-port="3" />
		<edge from-layer="1468" from-port="0" to-layer="1469" to-port="1" />
		<edge from-layer="1469" from-port="2" to-layer="1471" to-port="0" />
		<edge from-layer="1470" from-port="0" to-layer="1471" to-port="1" />
		<edge from-layer="1471" from-port="2" to-layer="1473" to-port="0" />
		<edge from-layer="1472" from-port="0" to-layer="1473" to-port="1" />
		<edge from-layer="1473" from-port="2" to-layer="1475" to-port="0" />
		<edge from-layer="1474" from-port="0" to-layer="1475" to-port="1" />
		<edge from-layer="1475" from-port="2" to-layer="1485" to-port="0" />
		<edge from-layer="1475" from-port="2" to-layer="1476" to-port="0" />
		<edge from-layer="1476" from-port="1" to-layer="1498" to-port="0" />
		<edge from-layer="1476" from-port="1" to-layer="1488" to-port="0" />
		<edge from-layer="1476" from-port="1" to-layer="1480" to-port="0" />
		<edge from-layer="1477" from-port="0" to-layer="1480" to-port="1" />
		<edge from-layer="1478" from-port="0" to-layer="1480" to-port="2" />
		<edge from-layer="1479" from-port="0" to-layer="1480" to-port="3" />
		<edge from-layer="1480" from-port="4" to-layer="1482" to-port="0" />
		<edge from-layer="1481" from-port="0" to-layer="1482" to-port="1" />
		<edge from-layer="1482" from-port="2" to-layer="1484" to-port="0" />
		<edge from-layer="1483" from-port="0" to-layer="1484" to-port="1" />
		<edge from-layer="1484" from-port="2" to-layer="1485" to-port="1" />
		<edge from-layer="1485" from-port="2" to-layer="1492" to-port="0" />
		<edge from-layer="1486" from-port="0" to-layer="1488" to-port="1" />
		<edge from-layer="1487" from-port="0" to-layer="1488" to-port="2" />
		<edge from-layer="1488" from-port="3" to-layer="1489" to-port="1" />
		<edge from-layer="1489" from-port="2" to-layer="1490" to-port="1" />
		<edge from-layer="1490" from-port="2" to-layer="1495" to-port="0" />
		<edge from-layer="1490" from-port="2" to-layer="1492" to-port="1" />
		<edge from-layer="1491" from-port="0" to-layer="1492" to-port="2" />
		<edge from-layer="1492" from-port="3" to-layer="1494" to-port="0" />
		<edge from-layer="1493" from-port="0" to-layer="1494" to-port="1" />
		<edge from-layer="1494" from-port="2" to-layer="1500" to-port="0" />
		<edge from-layer="1495" from-port="1" to-layer="1499" to-port="0" />
		<edge from-layer="1496" from-port="0" to-layer="1498" to-port="1" />
		<edge from-layer="1497" from-port="0" to-layer="1498" to-port="2" />
		<edge from-layer="1498" from-port="3" to-layer="1499" to-port="1" />
		<edge from-layer="1499" from-port="2" to-layer="1500" to-port="1" />
		<edge from-layer="1500" from-port="2" to-layer="1501" to-port="4" />
		<edge from-layer="1501" from-port="5" to-layer="1548" to-port="0" />
		<edge from-layer="1501" from-port="5" to-layer="1503" to-port="0" />
		<edge from-layer="1502" from-port="0" to-layer="1503" to-port="1" />
		<edge from-layer="1503" from-port="2" to-layer="1505" to-port="0" />
		<edge from-layer="1504" from-port="0" to-layer="1505" to-port="1" />
		<edge from-layer="1505" from-port="2" to-layer="1517" to-port="0" />
		<edge from-layer="1505" from-port="2" to-layer="1510" to-port="0" />
		<edge from-layer="1506" from-port="0" to-layer="1510" to-port="1" />
		<edge from-layer="1507" from-port="0" to-layer="1510" to-port="2" />
		<edge from-layer="1508" from-port="0" to-layer="1510" to-port="3" />
		<edge from-layer="1509" from-port="0" to-layer="1510" to-port="4" />
		<edge from-layer="1510" from-port="5" to-layer="1511" to-port="1" />
		<edge from-layer="1511" from-port="2" to-layer="1512" to-port="1" />
		<edge from-layer="1512" from-port="2" to-layer="1536" to-port="0" />
		<edge from-layer="1512" from-port="2" to-layer="1523" to-port="0" />
		<edge from-layer="1513" from-port="0" to-layer="1517" to-port="1" />
		<edge from-layer="1514" from-port="0" to-layer="1517" to-port="2" />
		<edge from-layer="1515" from-port="0" to-layer="1517" to-port="3" />
		<edge from-layer="1516" from-port="0" to-layer="1517" to-port="4" />
		<edge from-layer="1517" from-port="5" to-layer="1518" to-port="0" />
		<edge from-layer="1518" from-port="1" to-layer="1519" to-port="0" />
		<edge from-layer="1519" from-port="1" to-layer="1520" to-port="1" />
		<edge from-layer="1520" from-port="2" to-layer="1522" to-port="0" />
		<edge from-layer="1521" from-port="0" to-layer="1522" to-port="1" />
		<edge from-layer="1522" from-port="2" to-layer="1536" to-port="1" />
		<edge from-layer="1522" from-port="2" to-layer="1523" to-port="1" />
		<edge from-layer="1523" from-port="2" to-layer="1532" to-port="0" />
		<edge from-layer="1523" from-port="2" to-layer="1526" to-port="0" />
		<edge from-layer="1524" from-port="0" to-layer="1538" to-port="1" />
		<edge from-layer="1524" from-port="0" to-layer="1878" to-port="1" />
		<edge from-layer="1524" from-port="0" to-layer="1526" to-port="1" />
		<edge from-layer="1525" from-port="0" to-layer="1526" to-port="2" />
		<edge from-layer="1526" from-port="3" to-layer="1527" to-port="0" />
		<edge from-layer="1527" from-port="1" to-layer="1529" to-port="0" />
		<edge from-layer="1528" from-port="0" to-layer="1529" to-port="1" />
		<edge from-layer="1529" from-port="2" to-layer="1547" to-port="0" />
		<edge from-layer="1530" from-port="0" to-layer="1532" to-port="1" />
		<edge from-layer="1530" from-port="0" to-layer="1883" to-port="1" />
		<edge from-layer="1530" from-port="0" to-layer="1543" to-port="1" />
		<edge from-layer="1531" from-port="0" to-layer="1532" to-port="2" />
		<edge from-layer="1532" from-port="3" to-layer="1533" to-port="0" />
		<edge from-layer="1533" from-port="1" to-layer="1535" to-port="0" />
		<edge from-layer="1534" from-port="0" to-layer="1535" to-port="1" />
		<edge from-layer="1535" from-port="2" to-layer="1547" to-port="1" />
		<edge from-layer="1536" from-port="2" to-layer="1538" to-port="0" />
		<edge from-layer="1536" from-port="2" to-layer="1543" to-port="0" />
		<edge from-layer="1537" from-port="0" to-layer="1538" to-port="2" />
		<edge from-layer="1538" from-port="3" to-layer="1539" to-port="0" />
		<edge from-layer="1539" from-port="1" to-layer="1541" to-port="0" />
		<edge from-layer="1540" from-port="0" to-layer="1541" to-port="1" />
		<edge from-layer="1541" from-port="2" to-layer="1547" to-port="2" />
		<edge from-layer="1542" from-port="0" to-layer="1543" to-port="2" />
		<edge from-layer="1543" from-port="3" to-layer="1544" to-port="0" />
		<edge from-layer="1544" from-port="1" to-layer="1546" to-port="0" />
		<edge from-layer="1545" from-port="0" to-layer="1546" to-port="1" />
		<edge from-layer="1546" from-port="2" to-layer="1547" to-port="3" />
		<edge from-layer="1547" from-port="4" to-layer="1549" to-port="0" />
		<edge from-layer="1548" from-port="1" to-layer="1837" to-port="0" />
		<edge from-layer="1548" from-port="1" to-layer="1847" to-port="0" />
		<edge from-layer="1548" from-port="1" to-layer="1549" to-port="1" />
		<edge from-layer="1548" from-port="1" to-layer="1553" to-port="0" />
		<edge from-layer="1549" from-port="2" to-layer="1558" to-port="0" />
		<edge from-layer="1550" from-port="0" to-layer="1553" to-port="1" />
		<edge from-layer="1551" from-port="0" to-layer="1553" to-port="2" />
		<edge from-layer="1552" from-port="0" to-layer="1553" to-port="3" />
		<edge from-layer="1553" from-port="4" to-layer="1555" to-port="0" />
		<edge from-layer="1554" from-port="0" to-layer="1555" to-port="1" />
		<edge from-layer="1555" from-port="2" to-layer="1557" to-port="0" />
		<edge from-layer="1556" from-port="0" to-layer="1557" to-port="1" />
		<edge from-layer="1557" from-port="2" to-layer="1558" to-port="1" />
		<edge from-layer="1558" from-port="2" to-layer="1841" to-port="0" />
		<edge from-layer="1559" from-port="1" to-layer="1581" to-port="0" />
		<edge from-layer="1559" from-port="1" to-layer="1571" to-port="0" />
		<edge from-layer="1559" from-port="1" to-layer="1563" to-port="0" />
		<edge from-layer="1560" from-port="0" to-layer="1563" to-port="1" />
		<edge from-layer="1561" from-port="0" to-layer="1563" to-port="2" />
		<edge from-layer="1562" from-port="0" to-layer="1563" to-port="3" />
		<edge from-layer="1563" from-port="4" to-layer="1565" to-port="0" />
		<edge from-layer="1564" from-port="0" to-layer="1565" to-port="1" />
		<edge from-layer="1565" from-port="2" to-layer="1567" to-port="0" />
		<edge from-layer="1566" from-port="0" to-layer="1567" to-port="1" />
		<edge from-layer="1567" from-port="2" to-layer="1568" to-port="1" />
		<edge from-layer="1568" from-port="2" to-layer="1575" to-port="0" />
		<edge from-layer="1569" from-port="0" to-layer="1571" to-port="1" />
		<edge from-layer="1570" from-port="0" to-layer="1571" to-port="2" />
		<edge from-layer="1571" from-port="3" to-layer="1572" to-port="1" />
		<edge from-layer="1572" from-port="2" to-layer="1573" to-port="1" />
		<edge from-layer="1573" from-port="2" to-layer="1578" to-port="0" />
		<edge from-layer="1573" from-port="2" to-layer="1575" to-port="1" />
		<edge from-layer="1574" from-port="0" to-layer="1575" to-port="2" />
		<edge from-layer="1575" from-port="3" to-layer="1577" to-port="0" />
		<edge from-layer="1576" from-port="0" to-layer="1577" to-port="1" />
		<edge from-layer="1577" from-port="2" to-layer="1583" to-port="0" />
		<edge from-layer="1578" from-port="1" to-layer="1582" to-port="0" />
		<edge from-layer="1579" from-port="0" to-layer="1581" to-port="1" />
		<edge from-layer="1580" from-port="0" to-layer="1581" to-port="2" />
		<edge from-layer="1581" from-port="3" to-layer="1582" to-port="1" />
		<edge from-layer="1582" from-port="2" to-layer="1583" to-port="1" />
		<edge from-layer="1583" from-port="2" to-layer="1684" to-port="0" />
		<edge from-layer="1584" from-port="1" to-layer="1596" to-port="0" />
		<edge from-layer="1584" from-port="1" to-layer="1588" to-port="0" />
		<edge from-layer="1584" from-port="1" to-layer="1606" to-port="0" />
		<edge from-layer="1585" from-port="0" to-layer="1588" to-port="1" />
		<edge from-layer="1586" from-port="0" to-layer="1588" to-port="2" />
		<edge from-layer="1587" from-port="0" to-layer="1588" to-port="3" />
		<edge from-layer="1588" from-port="4" to-layer="1590" to-port="0" />
		<edge from-layer="1589" from-port="0" to-layer="1590" to-port="1" />
		<edge from-layer="1590" from-port="2" to-layer="1592" to-port="0" />
		<edge from-layer="1591" from-port="0" to-layer="1592" to-port="1" />
		<edge from-layer="1592" from-port="2" to-layer="1593" to-port="1" />
		<edge from-layer="1593" from-port="2" to-layer="1600" to-port="0" />
		<edge from-layer="1594" from-port="0" to-layer="1596" to-port="1" />
		<edge from-layer="1595" from-port="0" to-layer="1596" to-port="2" />
		<edge from-layer="1596" from-port="3" to-layer="1597" to-port="1" />
		<edge from-layer="1597" from-port="2" to-layer="1598" to-port="1" />
		<edge from-layer="1598" from-port="2" to-layer="1603" to-port="0" />
		<edge from-layer="1598" from-port="2" to-layer="1600" to-port="1" />
		<edge from-layer="1599" from-port="0" to-layer="1600" to-port="2" />
		<edge from-layer="1600" from-port="3" to-layer="1602" to-port="0" />
		<edge from-layer="1601" from-port="0" to-layer="1602" to-port="1" />
		<edge from-layer="1602" from-port="2" to-layer="1608" to-port="0" />
		<edge from-layer="1603" from-port="1" to-layer="1607" to-port="0" />
		<edge from-layer="1604" from-port="0" to-layer="1606" to-port="1" />
		<edge from-layer="1605" from-port="0" to-layer="1606" to-port="2" />
		<edge from-layer="1606" from-port="3" to-layer="1607" to-port="1" />
		<edge from-layer="1607" from-port="2" to-layer="1608" to-port="1" />
		<edge from-layer="1608" from-port="2" to-layer="1684" to-port="1" />
		<edge from-layer="1609" from-port="1" to-layer="1621" to-port="0" />
		<edge from-layer="1609" from-port="1" to-layer="1631" to-port="0" />
		<edge from-layer="1609" from-port="1" to-layer="1613" to-port="0" />
		<edge from-layer="1610" from-port="0" to-layer="1613" to-port="1" />
		<edge from-layer="1611" from-port="0" to-layer="1613" to-port="2" />
		<edge from-layer="1612" from-port="0" to-layer="1613" to-port="3" />
		<edge from-layer="1613" from-port="4" to-layer="1615" to-port="0" />
		<edge from-layer="1614" from-port="0" to-layer="1615" to-port="1" />
		<edge from-layer="1615" from-port="2" to-layer="1617" to-port="0" />
		<edge from-layer="1616" from-port="0" to-layer="1617" to-port="1" />
		<edge from-layer="1617" from-port="2" to-layer="1618" to-port="1" />
		<edge from-layer="1618" from-port="2" to-layer="1625" to-port="0" />
		<edge from-layer="1619" from-port="0" to-layer="1621" to-port="1" />
		<edge from-layer="1620" from-port="0" to-layer="1621" to-port="2" />
		<edge from-layer="1621" from-port="3" to-layer="1622" to-port="1" />
		<edge from-layer="1622" from-port="2" to-layer="1623" to-port="1" />
		<edge from-layer="1623" from-port="2" to-layer="1628" to-port="0" />
		<edge from-layer="1623" from-port="2" to-layer="1625" to-port="1" />
		<edge from-layer="1624" from-port="0" to-layer="1625" to-port="2" />
		<edge from-layer="1625" from-port="3" to-layer="1627" to-port="0" />
		<edge from-layer="1626" from-port="0" to-layer="1627" to-port="1" />
		<edge from-layer="1627" from-port="2" to-layer="1633" to-port="0" />
		<edge from-layer="1628" from-port="1" to-layer="1632" to-port="0" />
		<edge from-layer="1629" from-port="0" to-layer="1631" to-port="1" />
		<edge from-layer="1630" from-port="0" to-layer="1631" to-port="2" />
		<edge from-layer="1631" from-port="3" to-layer="1632" to-port="1" />
		<edge from-layer="1632" from-port="2" to-layer="1633" to-port="1" />
		<edge from-layer="1633" from-port="2" to-layer="1684" to-port="2" />
		<edge from-layer="1634" from-port="1" to-layer="1646" to-port="0" />
		<edge from-layer="1634" from-port="1" to-layer="1638" to-port="0" />
		<edge from-layer="1634" from-port="1" to-layer="1656" to-port="0" />
		<edge from-layer="1635" from-port="0" to-layer="1638" to-port="1" />
		<edge from-layer="1636" from-port="0" to-layer="1638" to-port="2" />
		<edge from-layer="1637" from-port="0" to-layer="1638" to-port="3" />
		<edge from-layer="1638" from-port="4" to-layer="1640" to-port="0" />
		<edge from-layer="1639" from-port="0" to-layer="1640" to-port="1" />
		<edge from-layer="1640" from-port="2" to-layer="1642" to-port="0" />
		<edge from-layer="1641" from-port="0" to-layer="1642" to-port="1" />
		<edge from-layer="1642" from-port="2" to-layer="1643" to-port="1" />
		<edge from-layer="1643" from-port="2" to-layer="1650" to-port="0" />
		<edge from-layer="1644" from-port="0" to-layer="1646" to-port="1" />
		<edge from-layer="1645" from-port="0" to-layer="1646" to-port="2" />
		<edge from-layer="1646" from-port="3" to-layer="1647" to-port="1" />
		<edge from-layer="1647" from-port="2" to-layer="1648" to-port="1" />
		<edge from-layer="1648" from-port="2" to-layer="1653" to-port="0" />
		<edge from-layer="1648" from-port="2" to-layer="1650" to-port="1" />
		<edge from-layer="1649" from-port="0" to-layer="1650" to-port="2" />
		<edge from-layer="1650" from-port="3" to-layer="1652" to-port="0" />
		<edge from-layer="1651" from-port="0" to-layer="1652" to-port="1" />
		<edge from-layer="1652" from-port="2" to-layer="1658" to-port="0" />
		<edge from-layer="1653" from-port="1" to-layer="1657" to-port="0" />
		<edge from-layer="1654" from-port="0" to-layer="1656" to-port="1" />
		<edge from-layer="1655" from-port="0" to-layer="1656" to-port="2" />
		<edge from-layer="1656" from-port="3" to-layer="1657" to-port="1" />
		<edge from-layer="1657" from-port="2" to-layer="1658" to-port="1" />
		<edge from-layer="1658" from-port="2" to-layer="1684" to-port="3" />
		<edge from-layer="1659" from-port="1" to-layer="1671" to-port="0" />
		<edge from-layer="1659" from-port="1" to-layer="1663" to-port="0" />
		<edge from-layer="1659" from-port="1" to-layer="1681" to-port="0" />
		<edge from-layer="1660" from-port="0" to-layer="1663" to-port="1" />
		<edge from-layer="1661" from-port="0" to-layer="1663" to-port="2" />
		<edge from-layer="1662" from-port="0" to-layer="1663" to-port="3" />
		<edge from-layer="1663" from-port="4" to-layer="1665" to-port="0" />
		<edge from-layer="1664" from-port="0" to-layer="1665" to-port="1" />
		<edge from-layer="1665" from-port="2" to-layer="1667" to-port="0" />
		<edge from-layer="1666" from-port="0" to-layer="1667" to-port="1" />
		<edge from-layer="1667" from-port="2" to-layer="1668" to-port="1" />
		<edge from-layer="1668" from-port="2" to-layer="1675" to-port="0" />
		<edge from-layer="1669" from-port="0" to-layer="1671" to-port="1" />
		<edge from-layer="1670" from-port="0" to-layer="1671" to-port="2" />
		<edge from-layer="1671" from-port="3" to-layer="1672" to-port="1" />
		<edge from-layer="1672" from-port="2" to-layer="1673" to-port="1" />
		<edge from-layer="1673" from-port="2" to-layer="1678" to-port="0" />
		<edge from-layer="1673" from-port="2" to-layer="1675" to-port="1" />
		<edge from-layer="1674" from-port="0" to-layer="1675" to-port="2" />
		<edge from-layer="1675" from-port="3" to-layer="1677" to-port="0" />
		<edge from-layer="1676" from-port="0" to-layer="1677" to-port="1" />
		<edge from-layer="1677" from-port="2" to-layer="1683" to-port="0" />
		<edge from-layer="1678" from-port="1" to-layer="1682" to-port="0" />
		<edge from-layer="1679" from-port="0" to-layer="1681" to-port="1" />
		<edge from-layer="1680" from-port="0" to-layer="1681" to-port="2" />
		<edge from-layer="1681" from-port="3" to-layer="1682" to-port="1" />
		<edge from-layer="1682" from-port="2" to-layer="1683" to-port="1" />
		<edge from-layer="1683" from-port="2" to-layer="1684" to-port="4" />
		<edge from-layer="1684" from-port="5" to-layer="1811" to-port="0" />
		<edge from-layer="1685" from-port="1" to-layer="1707" to-port="0" />
		<edge from-layer="1685" from-port="1" to-layer="1689" to-port="0" />
		<edge from-layer="1685" from-port="1" to-layer="1697" to-port="0" />
		<edge from-layer="1686" from-port="0" to-layer="1689" to-port="1" />
		<edge from-layer="1687" from-port="0" to-layer="1689" to-port="2" />
		<edge from-layer="1688" from-port="0" to-layer="1689" to-port="3" />
		<edge from-layer="1689" from-port="4" to-layer="1691" to-port="0" />
		<edge from-layer="1690" from-port="0" to-layer="1691" to-port="1" />
		<edge from-layer="1691" from-port="2" to-layer="1693" to-port="0" />
		<edge from-layer="1692" from-port="0" to-layer="1693" to-port="1" />
		<edge from-layer="1693" from-port="2" to-layer="1694" to-port="1" />
		<edge from-layer="1694" from-port="2" to-layer="1701" to-port="0" />
		<edge from-layer="1695" from-port="0" to-layer="1697" to-port="1" />
		<edge from-layer="1696" from-port="0" to-layer="1697" to-port="2" />
		<edge from-layer="1697" from-port="3" to-layer="1698" to-port="1" />
		<edge from-layer="1698" from-port="2" to-layer="1699" to-port="1" />
		<edge from-layer="1699" from-port="2" to-layer="1701" to-port="1" />
		<edge from-layer="1699" from-port="2" to-layer="1704" to-port="0" />
		<edge from-layer="1700" from-port="0" to-layer="1701" to-port="2" />
		<edge from-layer="1701" from-port="3" to-layer="1703" to-port="0" />
		<edge from-layer="1702" from-port="0" to-layer="1703" to-port="1" />
		<edge from-layer="1703" from-port="2" to-layer="1709" to-port="0" />
		<edge from-layer="1704" from-port="1" to-layer="1708" to-port="0" />
		<edge from-layer="1705" from-port="0" to-layer="1707" to-port="1" />
		<edge from-layer="1706" from-port="0" to-layer="1707" to-port="2" />
		<edge from-layer="1707" from-port="3" to-layer="1708" to-port="1" />
		<edge from-layer="1708" from-port="2" to-layer="1709" to-port="1" />
		<edge from-layer="1709" from-port="2" to-layer="1810" to-port="0" />
		<edge from-layer="1710" from-port="1" to-layer="1722" to-port="0" />
		<edge from-layer="1710" from-port="1" to-layer="1732" to-port="0" />
		<edge from-layer="1710" from-port="1" to-layer="1714" to-port="0" />
		<edge from-layer="1711" from-port="0" to-layer="1714" to-port="1" />
		<edge from-layer="1712" from-port="0" to-layer="1714" to-port="2" />
		<edge from-layer="1713" from-port="0" to-layer="1714" to-port="3" />
		<edge from-layer="1714" from-port="4" to-layer="1716" to-port="0" />
		<edge from-layer="1715" from-port="0" to-layer="1716" to-port="1" />
		<edge from-layer="1716" from-port="2" to-layer="1718" to-port="0" />
		<edge from-layer="1717" from-port="0" to-layer="1718" to-port="1" />
		<edge from-layer="1718" from-port="2" to-layer="1719" to-port="1" />
		<edge from-layer="1719" from-port="2" to-layer="1726" to-port="0" />
		<edge from-layer="1720" from-port="0" to-layer="1722" to-port="1" />
		<edge from-layer="1721" from-port="0" to-layer="1722" to-port="2" />
		<edge from-layer="1722" from-port="3" to-layer="1723" to-port="1" />
		<edge from-layer="1723" from-port="2" to-layer="1724" to-port="1" />
		<edge from-layer="1724" from-port="2" to-layer="1726" to-port="1" />
		<edge from-layer="1724" from-port="2" to-layer="1729" to-port="0" />
		<edge from-layer="1725" from-port="0" to-layer="1726" to-port="2" />
		<edge from-layer="1726" from-port="3" to-layer="1728" to-port="0" />
		<edge from-layer="1727" from-port="0" to-layer="1728" to-port="1" />
		<edge from-layer="1728" from-port="2" to-layer="1734" to-port="0" />
		<edge from-layer="1729" from-port="1" to-layer="1733" to-port="0" />
		<edge from-layer="1730" from-port="0" to-layer="1732" to-port="1" />
		<edge from-layer="1731" from-port="0" to-layer="1732" to-port="2" />
		<edge from-layer="1732" from-port="3" to-layer="1733" to-port="1" />
		<edge from-layer="1733" from-port="2" to-layer="1734" to-port="1" />
		<edge from-layer="1734" from-port="2" to-layer="1810" to-port="1" />
		<edge from-layer="1735" from-port="1" to-layer="1747" to-port="0" />
		<edge from-layer="1735" from-port="1" to-layer="1739" to-port="0" />
		<edge from-layer="1735" from-port="1" to-layer="1757" to-port="0" />
		<edge from-layer="1736" from-port="0" to-layer="1739" to-port="1" />
		<edge from-layer="1737" from-port="0" to-layer="1739" to-port="2" />
		<edge from-layer="1738" from-port="0" to-layer="1739" to-port="3" />
		<edge from-layer="1739" from-port="4" to-layer="1741" to-port="0" />
		<edge from-layer="1740" from-port="0" to-layer="1741" to-port="1" />
		<edge from-layer="1741" from-port="2" to-layer="1743" to-port="0" />
		<edge from-layer="1742" from-port="0" to-layer="1743" to-port="1" />
		<edge from-layer="1743" from-port="2" to-layer="1744" to-port="1" />
		<edge from-layer="1744" from-port="2" to-layer="1751" to-port="0" />
		<edge from-layer="1745" from-port="0" to-layer="1747" to-port="1" />
		<edge from-layer="1746" from-port="0" to-layer="1747" to-port="2" />
		<edge from-layer="1747" from-port="3" to-layer="1748" to-port="1" />
		<edge from-layer="1748" from-port="2" to-layer="1749" to-port="1" />
		<edge from-layer="1749" from-port="2" to-layer="1754" to-port="0" />
		<edge from-layer="1749" from-port="2" to-layer="1751" to-port="1" />
		<edge from-layer="1750" from-port="0" to-layer="1751" to-port="2" />
		<edge from-layer="1751" from-port="3" to-layer="1753" to-port="0" />
		<edge from-layer="1752" from-port="0" to-layer="1753" to-port="1" />
		<edge from-layer="1753" from-port="2" to-layer="1759" to-port="0" />
		<edge from-layer="1754" from-port="1" to-layer="1758" to-port="0" />
		<edge from-layer="1755" from-port="0" to-layer="1757" to-port="1" />
		<edge from-layer="1756" from-port="0" to-layer="1757" to-port="2" />
		<edge from-layer="1757" from-port="3" to-layer="1758" to-port="1" />
		<edge from-layer="1758" from-port="2" to-layer="1759" to-port="1" />
		<edge from-layer="1759" from-port="2" to-layer="1810" to-port="2" />
		<edge from-layer="1760" from-port="1" to-layer="1764" to-port="0" />
		<edge from-layer="1760" from-port="1" to-layer="1782" to-port="0" />
		<edge from-layer="1760" from-port="1" to-layer="1772" to-port="0" />
		<edge from-layer="1761" from-port="0" to-layer="1764" to-port="1" />
		<edge from-layer="1762" from-port="0" to-layer="1764" to-port="2" />
		<edge from-layer="1763" from-port="0" to-layer="1764" to-port="3" />
		<edge from-layer="1764" from-port="4" to-layer="1766" to-port="0" />
		<edge from-layer="1765" from-port="0" to-layer="1766" to-port="1" />
		<edge from-layer="1766" from-port="2" to-layer="1768" to-port="0" />
		<edge from-layer="1767" from-port="0" to-layer="1768" to-port="1" />
		<edge from-layer="1768" from-port="2" to-layer="1769" to-port="1" />
		<edge from-layer="1769" from-port="2" to-layer="1776" to-port="0" />
		<edge from-layer="1770" from-port="0" to-layer="1772" to-port="1" />
		<edge from-layer="1771" from-port="0" to-layer="1772" to-port="2" />
		<edge from-layer="1772" from-port="3" to-layer="1773" to-port="1" />
		<edge from-layer="1773" from-port="2" to-layer="1774" to-port="1" />
		<edge from-layer="1774" from-port="2" to-layer="1776" to-port="1" />
		<edge from-layer="1774" from-port="2" to-layer="1779" to-port="0" />
		<edge from-layer="1775" from-port="0" to-layer="1776" to-port="2" />
		<edge from-layer="1776" from-port="3" to-layer="1778" to-port="0" />
		<edge from-layer="1777" from-port="0" to-layer="1778" to-port="1" />
		<edge from-layer="1778" from-port="2" to-layer="1784" to-port="0" />
		<edge from-layer="1779" from-port="1" to-layer="1783" to-port="0" />
		<edge from-layer="1780" from-port="0" to-layer="1782" to-port="1" />
		<edge from-layer="1781" from-port="0" to-layer="1782" to-port="2" />
		<edge from-layer="1782" from-port="3" to-layer="1783" to-port="1" />
		<edge from-layer="1783" from-port="2" to-layer="1784" to-port="1" />
		<edge from-layer="1784" from-port="2" to-layer="1810" to-port="3" />
		<edge from-layer="1785" from-port="1" to-layer="1797" to-port="0" />
		<edge from-layer="1785" from-port="1" to-layer="1789" to-port="0" />
		<edge from-layer="1785" from-port="1" to-layer="1807" to-port="0" />
		<edge from-layer="1786" from-port="0" to-layer="1789" to-port="1" />
		<edge from-layer="1787" from-port="0" to-layer="1789" to-port="2" />
		<edge from-layer="1788" from-port="0" to-layer="1789" to-port="3" />
		<edge from-layer="1789" from-port="4" to-layer="1791" to-port="0" />
		<edge from-layer="1790" from-port="0" to-layer="1791" to-port="1" />
		<edge from-layer="1791" from-port="2" to-layer="1793" to-port="0" />
		<edge from-layer="1792" from-port="0" to-layer="1793" to-port="1" />
		<edge from-layer="1793" from-port="2" to-layer="1794" to-port="1" />
		<edge from-layer="1794" from-port="2" to-layer="1801" to-port="0" />
		<edge from-layer="1795" from-port="0" to-layer="1797" to-port="1" />
		<edge from-layer="1796" from-port="0" to-layer="1797" to-port="2" />
		<edge from-layer="1797" from-port="3" to-layer="1798" to-port="1" />
		<edge from-layer="1798" from-port="2" to-layer="1799" to-port="1" />
		<edge from-layer="1799" from-port="2" to-layer="1804" to-port="0" />
		<edge from-layer="1799" from-port="2" to-layer="1801" to-port="1" />
		<edge from-layer="1800" from-port="0" to-layer="1801" to-port="2" />
		<edge from-layer="1801" from-port="3" to-layer="1803" to-port="0" />
		<edge from-layer="1802" from-port="0" to-layer="1803" to-port="1" />
		<edge from-layer="1803" from-port="2" to-layer="1809" to-port="0" />
		<edge from-layer="1804" from-port="1" to-layer="1808" to-port="0" />
		<edge from-layer="1805" from-port="0" to-layer="1807" to-port="1" />
		<edge from-layer="1806" from-port="0" to-layer="1807" to-port="2" />
		<edge from-layer="1807" from-port="3" to-layer="1808" to-port="1" />
		<edge from-layer="1808" from-port="2" to-layer="1809" to-port="1" />
		<edge from-layer="1809" from-port="2" to-layer="1810" to-port="4" />
		<edge from-layer="1810" from-port="5" to-layer="1811" to-port="1" />
		<edge from-layer="1811" from-port="2" to-layer="1813" to-port="0" />
		<edge from-layer="1811" from-port="2" to-layer="1855" to-port="0" />
		<edge from-layer="1811" from-port="2" to-layer="1854" to-port="0" />
		<edge from-layer="1812" from-port="0" to-layer="1813" to-port="1" />
		<edge from-layer="1813" from-port="2" to-layer="1815" to-port="0" />
		<edge from-layer="1813" from-port="2" to-layer="1826" to-port="0" />
		<edge from-layer="1814" from-port="0" to-layer="1819" to-port="0" />
		<edge from-layer="1815" from-port="1" to-layer="1851" to-port="0" />
		<edge from-layer="1815" from-port="1" to-layer="1830" to-port="0" />
		<edge from-layer="1815" from-port="1" to-layer="1818" to-port="0" />
		<edge from-layer="1816" from-port="0" to-layer="1818" to-port="1" />
		<edge from-layer="1817" from-port="0" to-layer="1818" to-port="2" />
		<edge from-layer="1818" from-port="3" to-layer="1819" to-port="1" />
		<edge from-layer="1818" from-port="3" to-layer="1821" to-port="2" />
		<edge from-layer="1819" from-port="2" to-layer="1821" to-port="0" />
		<edge from-layer="1820" from-port="0" to-layer="1821" to-port="1" />
		<edge from-layer="1821" from-port="3" to-layer="1823" to-port="0" />
		<edge from-layer="1822" from-port="0" to-layer="1823" to-port="1" />
		<edge from-layer="1823" from-port="2" to-layer="1825" to-port="0" />
		<edge from-layer="1824" from-port="0" to-layer="1825" to-port="1" />
		<edge from-layer="1825" from-port="2" to-layer="1826" to-port="1" />
		<edge from-layer="1826" from-port="3" to-layer="1860" to-port="0" />
		<edge from-layer="1826" from-port="3" to-layer="1839" to-port="0" />
		<edge from-layer="1827" from-port="0" to-layer="1832" to-port="0" />
		<edge from-layer="1828" from-port="0" to-layer="1830" to-port="1" />
		<edge from-layer="1829" from-port="0" to-layer="1830" to-port="2" />
		<edge from-layer="1830" from-port="3" to-layer="1832" to-port="1" />
		<edge from-layer="1830" from-port="3" to-layer="1887" to-port="0" />
		<edge from-layer="1831" from-port="0" to-layer="1832" to-port="2" />
		<edge from-layer="1832" from-port="3" to-layer="1834" to-port="0" />
		<edge from-layer="1832" from-port="3" to-layer="1880" to-port="0" />
		<edge from-layer="1833" from-port="0" to-layer="1834" to-port="1" />
		<edge from-layer="1834" from-port="2" to-layer="2006" to-port="0" />
		<edge from-layer="1834" from-port="2" to-layer="1859" to-port="0" />
		<edge from-layer="1834" from-port="2" to-layer="1986" to-port="0" />
		<edge from-layer="1834" from-port="2" to-layer="1838" to-port="0" />
		<edge from-layer="1835" from-port="0" to-layer="1837" to-port="1" />
		<edge from-layer="1836" from-port="0" to-layer="1837" to-port="2" />
		<edge from-layer="1837" from-port="3" to-layer="1838" to-port="1" />
		<edge from-layer="1838" from-port="2" to-layer="1839" to-port="1" />
		<edge from-layer="1839" from-port="2" to-layer="1841" to-port="1" />
		<edge from-layer="1839" from-port="2" to-layer="1844" to-port="0" />
		<edge from-layer="1840" from-port="0" to-layer="1841" to-port="2" />
		<edge from-layer="1841" from-port="3" to-layer="1843" to-port="0" />
		<edge from-layer="1842" from-port="0" to-layer="1843" to-port="1" />
		<edge from-layer="1843" from-port="2" to-layer="1849" to-port="0" />
		<edge from-layer="1844" from-port="1" to-layer="1897" to-port="0" />
		<edge from-layer="1844" from-port="1" to-layer="1848" to-port="0" />
		<edge from-layer="1845" from-port="0" to-layer="1847" to-port="1" />
		<edge from-layer="1846" from-port="0" to-layer="1847" to-port="2" />
		<edge from-layer="1847" from-port="3" to-layer="1848" to-port="1" />
		<edge from-layer="1848" from-port="2" to-layer="1906" to-port="0" />
		<edge from-layer="1848" from-port="2" to-layer="1849" to-port="1" />
		<edge from-layer="1849" from-port="2" to-layer="1900" to-port="0" />
		<edge from-layer="1849" from-port="2" to-layer="1876" to-port="0" />
		<edge from-layer="1850" from-port="0" to-layer="1851" to-port="1" />
		<edge from-layer="1851" from-port="2" to-layer="1853" to-port="0" />
		<edge from-layer="1852" from-port="0" to-layer="1853" to-port="1" />
		<edge from-layer="1853" from-port="2" to-layer="1854" to-port="1" />
		<edge from-layer="1854" from-port="2" to-layer="1862" to-port="0" />
		<edge from-layer="1855" from-port="1" to-layer="1868" to-port="0" />
		<edge from-layer="1855" from-port="1" to-layer="1858" to-port="0" />
		<edge from-layer="1856" from-port="0" to-layer="1858" to-port="1" />
		<edge from-layer="1857" from-port="0" to-layer="1858" to-port="2" />
		<edge from-layer="1858" from-port="3" to-layer="1859" to-port="1" />
		<edge from-layer="1859" from-port="2" to-layer="1860" to-port="1" />
		<edge from-layer="1860" from-port="2" to-layer="1865" to-port="0" />
		<edge from-layer="1860" from-port="2" to-layer="1862" to-port="1" />
		<edge from-layer="1861" from-port="0" to-layer="1862" to-port="2" />
		<edge from-layer="1862" from-port="3" to-layer="1864" to-port="0" />
		<edge from-layer="1863" from-port="0" to-layer="1864" to-port="1" />
		<edge from-layer="1864" from-port="2" to-layer="1870" to-port="0" />
		<edge from-layer="1865" from-port="1" to-layer="1869" to-port="0" />
		<edge from-layer="1866" from-port="0" to-layer="1868" to-port="1" />
		<edge from-layer="1867" from-port="0" to-layer="1868" to-port="2" />
		<edge from-layer="1868" from-port="3" to-layer="1869" to-port="1" />
		<edge from-layer="1869" from-port="2" to-layer="1870" to-port="1" />
		<edge from-layer="1870" from-port="2" to-layer="1872" to-port="0" />
		<edge from-layer="1871" from-port="0" to-layer="1872" to-port="1" />
		<edge from-layer="1872" from-port="2" to-layer="1915" to-port="0" />
		<edge from-layer="1872" from-port="2" to-layer="1920" to-port="0" />
		<edge from-layer="1872" from-port="2" to-layer="1876" to-port="1" />
		<edge from-layer="1873" from-port="0" to-layer="1876" to-port="2" />
		<edge from-layer="1874" from-port="0" to-layer="1876" to-port="3" />
		<edge from-layer="1875" from-port="0" to-layer="1876" to-port="4" />
		<edge from-layer="1876" from-port="5" to-layer="1878" to-port="0" />
		<edge from-layer="1876" from-port="5" to-layer="1883" to-port="0" />
		<edge from-layer="1876" from-port="5" to-layer="1903" to-port="0" />
		<edge from-layer="1877" from-port="0" to-layer="1878" to-port="2" />
		<edge from-layer="1878" from-port="3" to-layer="1907" to-port="0" />
		<edge from-layer="1878" from-port="3" to-layer="1881" to-port="0" />
		<edge from-layer="1878" from-port="3" to-layer="1930" to-port="0" />
		<edge from-layer="1879" from-port="0" to-layer="1880" to-port="1" />
		<edge from-layer="1880" from-port="2" to-layer="1881" to-port="1" />
		<edge from-layer="1881" from-port="2" to-layer="1892" to-port="0" />
		<edge from-layer="1881" from-port="2" to-layer="1895" to-port="0" />
		<edge from-layer="1882" from-port="0" to-layer="1883" to-port="2" />
		<edge from-layer="1883" from-port="3" to-layer="1924" to-port="0" />
		<edge from-layer="1883" from-port="3" to-layer="1885" to-port="0" />
		<edge from-layer="1884" from-port="0" to-layer="1885" to-port="1" />
		<edge from-layer="1885" from-port="2" to-layer="1890" to-port="0" />
		<edge from-layer="1886" from-port="0" to-layer="1887" to-port="1" />
		<edge from-layer="1887" from-port="2" to-layer="1943" to-port="0" />
		<edge from-layer="1887" from-port="2" to-layer="1889" to-port="0" />
		<edge from-layer="1888" from-port="0" to-layer="1889" to-port="1" />
		<edge from-layer="1889" from-port="2" to-layer="1890" to-port="1" />
		<edge from-layer="1890" from-port="2" to-layer="1892" to-port="1" />
		<edge from-layer="1891" from-port="0" to-layer="1892" to-port="2" />
		<edge from-layer="1892" from-port="3" to-layer="1954" to-port="0" />
		<edge from-layer="1893" from-port="0" to-layer="1953" to-port="0" />
		<edge from-layer="1894" from-port="0" to-layer="1895" to-port="1" />
		<edge from-layer="1895" from-port="2" to-layer="1946" to-port="0" />
		<edge from-layer="1896" from-port="0" to-layer="1897" to-port="1" />
		<edge from-layer="1897" from-port="2" to-layer="1899" to-port="0" />
		<edge from-layer="1898" from-port="0" to-layer="1899" to-port="1" />
		<edge from-layer="1899" from-port="2" to-layer="1900" to-port="1" />
		<edge from-layer="1900" from-port="2" to-layer="1910" to-port="0" />
		<edge from-layer="1901" from-port="0" to-layer="1903" to-port="1" />
		<edge from-layer="1902" from-port="0" to-layer="1903" to-port="2" />
		<edge from-layer="1903" from-port="3" to-layer="1908" to-port="0" />
		<edge from-layer="1903" from-port="3" to-layer="1925" to-port="0" />
		<edge from-layer="1904" from-port="0" to-layer="1906" to-port="1" />
		<edge from-layer="1905" from-port="0" to-layer="1906" to-port="2" />
		<edge from-layer="1906" from-port="3" to-layer="1907" to-port="1" />
		<edge from-layer="1907" from-port="2" to-layer="1908" to-port="1" />
		<edge from-layer="1908" from-port="2" to-layer="1910" to-port="1" />
		<edge from-layer="1909" from-port="0" to-layer="1910" to-port="2" />
		<edge from-layer="1910" from-port="3" to-layer="1912" to-port="0" />
		<edge from-layer="1911" from-port="0" to-layer="1912" to-port="1" />
		<edge from-layer="1912" from-port="2" to-layer="1914" to-port="0" />
		<edge from-layer="1913" from-port="0" to-layer="1914" to-port="1" />
		<edge from-layer="1914" from-port="2" to-layer="1938" to-port="0" />
		<edge from-layer="1915" from-port="1" to-layer="1928" to-port="0" />
		<edge from-layer="1915" from-port="1" to-layer="1917" to-port="0" />
		<edge from-layer="1915" from-port="1" to-layer="1923" to-port="0" />
		<edge from-layer="1916" from-port="0" to-layer="1917" to-port="1" />
		<edge from-layer="1917" from-port="2" to-layer="1919" to-port="0" />
		<edge from-layer="1918" from-port="0" to-layer="1919" to-port="1" />
		<edge from-layer="1919" from-port="2" to-layer="1920" to-port="1" />
		<edge from-layer="1920" from-port="2" to-layer="1933" to-port="0" />
		<edge from-layer="1921" from-port="0" to-layer="1923" to-port="1" />
		<edge from-layer="1922" from-port="0" to-layer="1923" to-port="2" />
		<edge from-layer="1923" from-port="3" to-layer="1924" to-port="1" />
		<edge from-layer="1923" from-port="3" to-layer="1929" to-port="0" />
		<edge from-layer="1924" from-port="2" to-layer="1925" to-port="1" />
		<edge from-layer="1925" from-port="2" to-layer="1931" to-port="0" />
		<edge from-layer="1926" from-port="0" to-layer="1928" to-port="1" />
		<edge from-layer="1927" from-port="0" to-layer="1928" to-port="2" />
		<edge from-layer="1928" from-port="3" to-layer="1929" to-port="1" />
		<edge from-layer="1929" from-port="2" to-layer="1930" to-port="1" />
		<edge from-layer="1930" from-port="2" to-layer="1931" to-port="1" />
		<edge from-layer="1931" from-port="2" to-layer="1933" to-port="1" />
		<edge from-layer="1932" from-port="0" to-layer="1933" to-port="2" />
		<edge from-layer="1933" from-port="3" to-layer="1935" to-port="0" />
		<edge from-layer="1934" from-port="0" to-layer="1935" to-port="1" />
		<edge from-layer="1935" from-port="2" to-layer="1937" to-port="0" />
		<edge from-layer="1936" from-port="0" to-layer="1937" to-port="1" />
		<edge from-layer="1937" from-port="2" to-layer="1938" to-port="1" />
		<edge from-layer="1938" from-port="2" to-layer="1940" to-port="0" />
		<edge from-layer="1939" from-port="0" to-layer="1940" to-port="1" />
		<edge from-layer="1940" from-port="2" to-layer="1944" to-port="0" />
		<edge from-layer="1941" from-port="0" to-layer="1943" to-port="1" />
		<edge from-layer="1942" from-port="0" to-layer="1943" to-port="2" />
		<edge from-layer="1943" from-port="3" to-layer="1944" to-port="1" />
		<edge from-layer="1944" from-port="2" to-layer="1946" to-port="1" />
		<edge from-layer="1945" from-port="0" to-layer="1946" to-port="2" />
		<edge from-layer="1946" from-port="3" to-layer="1947" to-port="0" />
		<edge from-layer="1946" from-port="3" to-layer="1966" to-port="0" />
		<edge from-layer="1947" from-port="1" to-layer="1950" to-port="0" />
		<edge from-layer="1948" from-port="0" to-layer="1950" to-port="1" />
		<edge from-layer="1949" from-port="0" to-layer="1950" to-port="2" />
		<edge from-layer="1950" from-port="3" to-layer="1964" to-port="0" />
		<edge from-layer="1950" from-port="3" to-layer="1952" to-port="0" />
		<edge from-layer="1951" from-port="0" to-layer="1952" to-port="1" />
		<edge from-layer="1952" from-port="2" to-layer="1953" to-port="1" />
		<edge from-layer="1953" from-port="2" to-layer="1954" to-port="1" />
		<edge from-layer="1954" from-port="2" to-layer="1955" to-port="0" />
		<edge from-layer="1954" from-port="2" to-layer="1960" to-port="0" />
		<edge from-layer="1955" from-port="1" to-layer="1957" to-port="0" />
		<edge from-layer="1955" from-port="1" to-layer="1985" to-port="0" />
		<edge from-layer="1956" from-port="0" to-layer="1957" to-port="1" />
		<edge from-layer="1957" from-port="2" to-layer="1959" to-port="0" />
		<edge from-layer="1958" from-port="0" to-layer="1959" to-port="1" />
		<edge from-layer="1959" from-port="2" to-layer="1960" to-port="1" />
		<edge from-layer="1960" from-port="2" to-layer="1989" to-port="0" />
		<edge from-layer="1961" from-port="0" to-layer="1965" to-port="0" />
		<edge from-layer="1962" from-port="0" to-layer="1964" to-port="1" />
		<edge from-layer="1963" from-port="0" to-layer="1964" to-port="2" />
		<edge from-layer="1964" from-port="3" to-layer="1965" to-port="1" />
		<edge from-layer="1965" from-port="2" to-layer="1966" to-port="1" />
		<edge from-layer="1966" from-port="2" to-layer="2002" to-port="0" />
		<edge from-layer="1966" from-port="2" to-layer="1971" to-port="0" />
		<edge from-layer="1966" from-port="2" to-layer="1969" to-port="0" />
		<edge from-layer="1967" from-port="0" to-layer="1969" to-port="1" />
		<edge from-layer="1968" from-port="0" to-layer="1969" to-port="2" />
		<edge from-layer="1969" from-port="3" to-layer="1982" to-port="0" />
		<edge from-layer="1970" from-port="0" to-layer="1975" to-port="0" />
		<edge from-layer="1971" from-port="1" to-layer="2015" to-port="0" />
		<edge from-layer="1971" from-port="1" to-layer="1997" to-port="0" />
		<edge from-layer="1971" from-port="1" to-layer="1974" to-port="0" />
		<edge from-layer="1971" from-port="1" to-layer="2005" to-port="0" />
		<edge from-layer="1972" from-port="0" to-layer="1974" to-port="1" />
		<edge from-layer="1973" from-port="0" to-layer="1974" to-port="2" />
		<edge from-layer="1974" from-port="3" to-layer="1977" to-port="2" />
		<edge from-layer="1974" from-port="3" to-layer="1975" to-port="1" />
		<edge from-layer="1975" from-port="2" to-layer="1977" to-port="0" />
		<edge from-layer="1976" from-port="0" to-layer="1977" to-port="1" />
		<edge from-layer="1977" from-port="3" to-layer="1979" to-port="0" />
		<edge from-layer="1978" from-port="0" to-layer="1979" to-port="1" />
		<edge from-layer="1979" from-port="2" to-layer="1981" to-port="0" />
		<edge from-layer="1980" from-port="0" to-layer="1981" to-port="1" />
		<edge from-layer="1981" from-port="2" to-layer="1982" to-port="1" />
		<edge from-layer="1982" from-port="3" to-layer="1987" to-port="0" />
		<edge from-layer="1982" from-port="3" to-layer="2007" to-port="0" />
		<edge from-layer="1983" from-port="0" to-layer="1985" to-port="1" />
		<edge from-layer="1984" from-port="0" to-layer="1985" to-port="2" />
		<edge from-layer="1985" from-port="3" to-layer="1986" to-port="1" />
		<edge from-layer="1986" from-port="2" to-layer="1987" to-port="1" />
		<edge from-layer="1987" from-port="2" to-layer="1992" to-port="0" />
		<edge from-layer="1987" from-port="2" to-layer="1989" to-port="1" />
		<edge from-layer="1988" from-port="0" to-layer="1989" to-port="2" />
		<edge from-layer="1989" from-port="3" to-layer="1991" to-port="0" />
		<edge from-layer="1990" from-port="0" to-layer="1991" to-port="1" />
		<edge from-layer="1991" from-port="2" to-layer="1993" to-port="0" />
		<edge from-layer="1992" from-port="1" to-layer="1993" to-port="1" />
		<edge from-layer="1993" from-port="2" to-layer="1994" to-port="0" />
		<edge from-layer="1995" from-port="0" to-layer="1997" to-port="1" />
		<edge from-layer="1996" from-port="0" to-layer="1997" to-port="2" />
		<edge from-layer="1997" from-port="3" to-layer="1999" to-port="0" />
		<edge from-layer="1998" from-port="0" to-layer="1999" to-port="1" />
		<edge from-layer="1999" from-port="2" to-layer="2001" to-port="0" />
		<edge from-layer="2000" from-port="0" to-layer="2001" to-port="1" />
		<edge from-layer="2001" from-port="2" to-layer="2002" to-port="1" />
		<edge from-layer="2002" from-port="2" to-layer="2009" to-port="0" />
		<edge from-layer="2003" from-port="0" to-layer="2005" to-port="1" />
		<edge from-layer="2004" from-port="0" to-layer="2005" to-port="2" />
		<edge from-layer="2005" from-port="3" to-layer="2006" to-port="1" />
		<edge from-layer="2006" from-port="2" to-layer="2007" to-port="1" />
		<edge from-layer="2007" from-port="2" to-layer="2009" to-port="1" />
		<edge from-layer="2007" from-port="2" to-layer="2012" to-port="0" />
		<edge from-layer="2008" from-port="0" to-layer="2009" to-port="2" />
		<edge from-layer="2009" from-port="3" to-layer="2011" to-port="0" />
		<edge from-layer="2010" from-port="0" to-layer="2011" to-port="1" />
		<edge from-layer="2011" from-port="2" to-layer="2017" to-port="0" />
		<edge from-layer="2012" from-port="1" to-layer="2016" to-port="0" />
		<edge from-layer="2013" from-port="0" to-layer="2015" to-port="1" />
		<edge from-layer="2014" from-port="0" to-layer="2015" to-port="2" />
		<edge from-layer="2015" from-port="3" to-layer="2016" to-port="1" />
		<edge from-layer="2016" from-port="2" to-layer="2017" to-port="1" />
		<edge from-layer="2017" from-port="2" to-layer="2018" to-port="0" />
	</edges>
	<rt_info>
		<Runtime_version value="2024.5.0-17288-7975fa5da0c-refs/pull/3856/head" />
		<conversion_parameters>
			<is_python_object value="False" />
		</conversion_parameters>
		<model_info>
			<confidence_threshold value="0.4" />
			<iou_threshold value="0.5" />
			<label_ids value="Cola Milkiss" />
			<label_info value="{&quot;label_names&quot;: [&quot;Cola&quot;, &quot;Milkiss&quot;], &quot;label_groups&quot;: [[&quot;Cola&quot;, &quot;Milkiss&quot;]]}" />
			<labels value="Cola Milkiss" />
			<mean_values value="0.0 0.0 0.0" />
			<model_type value="ssd" />
			<optimization_config value="{}" />
			<pad_value value="0" />
			<resize_type value="standard" />
			<reverse_input_channels value="False" />
			<scale_values value="255.0 255.0 255.0" />
			<task_type value="detection" />
		</model_info>
	</rt_info>
</net>
